python_files/data/speech_model_30_epochs.tflite (tflite, 426968 bytes, 20 tensors)

conv_1d_time_stacked/conv1d/conv1d/ExpandDims_1 i1 [16, 1, 1, 65] scale=0.0013290324 zero_point=0
0	0xda	-0.050503228
1	0xcd	-0.06778065
2	0xcb	-0.07043871
3	0xd0	-0.063793555
4	0xee	-0.023922583
5	0x5f	0.12625808
6	0x47	0.0943613
7	0xee	-0.023922583
8	0xef	-0.02259355
9	0xf7	-0.011961292
10	0x24	0.047845166
11	0x43	0.08904517
12	0x4c	0.101006456
13	0x2e	0.06113549
14	0x4d	0.10233549
15	0x18	0.031896777
16	0xe4	-0.037212905
17	0xea	-0.029238712
18	0xdd	-0.04651613
19	0x32	0.06645162
20	0xf7	-0.011961292
21	0xeb	-0.02790968
22	0x2d	0.059806455
23	0xee	-0.023922583
24	0xea	-0.029238712
25	0x24	0.047845166
26	0x01	0.0013290324
27	0xd1	-0.06246452
28	0x28	0.053161293
29	0xef	-0.02259355
30	0xda	-0.050503228
31	0x04	0.0053161294
32	0x30	0.063793555
33	0xe4	-0.037212905
34	0xe6	-0.034554843
35	0x1f	0.041200005
36	0x09	0.011961292
37	0xfb	-0.0066451617
38	0xd4	-0.058477424
39	0xee	-0.023922583
40	0x0b	0.014619356
41	0xf3	-0.017277421
42	0x18	0.031896777
43	0xfe	-0.0026580647
44	0xfc	-0.0053161294
45	0xdf	-0.043858066
46	0xe0	-0.042529035
47	0x2b	0.05714839
48	0x33	0.06778065
49	0xd6	-0.05581936
50	0x18	0.031896777
51	0x03	0.003987097
52	0xf3	-0.017277421
53	0xe4	-0.037212905
54	0x13	0.025251614
55	0xf8	-0.010632259
56	0x28	0.053161293
57	0x06	0.007974194
58	0xe8	-0.031896777
59	0xf8	-0.010632259
60	0xff	-0.0013290324
61	0x1b	0.035883874
62	0xec	-0.026580647
63	0x11	0.02259355
64	0x13	0.025251614
65	0x37	0.07309678
66	0xd5	-0.05714839
67	0x05	0.0066451617
68	0x59	0.11828388
69	0x08	0.010632259
70	0xfa	-0.007974194
71	0xab	-0.11296775
72	0x00	0.0
73	0xae	-0.108980656
74	0x0d	0.017277421
75	0x17	0.030567745
76	0xe3	-0.03854194
77	0x20	0.042529035
78	0xfa	-0.007974194
79	0xdd	-0.04651613
80	0x02	0.0026580647
81	0x2b	0.05714839
82	0x48	0.09569033
83	0x0c	0.015948389
84	0xfd	-0.003987097
85	0x22	0.0451871
86	0x03	0.003987097
87	0x34	0.069109686
88	0xfd	-0.003987097
89	0xba	-0.09303226
90	0xd8	-0.053161293
91	0xf5	-0.014619356
92	0xfe	-0.0026580647
93	0x2e	0.06113549
94	0xf6	-0.013290323
95	0x0c	0.015948389
96	0xee	-0.023922583
97	0xf7	-0.011961292
98	0x0a	0.013290323
99	0xe0	-0.042529035
100	0xd2	-0.06113549
101	0x25	0.049174197
102	0xef	-0.02259355
103	0xe9	-0.030567745
104	0xec	-0.026580647
105	0xe0	-0.042529035
106	0x3a	0.07708388
107	0xdd	-0.04651613
108	0xc0	-0.08505807
109	0x2b	0.05714839
110	0xdb	-0.049174197
111	0xe5	-0.035883874
112	0x2c	0.058477424
113	0xe1	-0.041200005
114	0x0d	0.017277421
115	0xcc	-0.069109686
116	0x18	0.031896777
117	0xe0	-0.042529035
118	0x06	0.007974194
119	0x25	0.049174197
120	0xf3	-0.017277421
121	0xf5	-0.014619356
122	0xe6	-0.034554843
123	0xde	-0.0451871
124	0x23	0.04651613
125	0xfb	-0.0066451617
126	0xe5	-0.035883874
127	0x1d	0.03854194
128	0xe8	-0.031896777
129	0xfd	-0.003987097
130	0x24	0.047845166
131	0x11	0.02259355
132	0xb4	-0.101006456
133	0xb8	-0.09569033
134	0x38	0.07442581
135	0x63	0.1315742
136	0x37	0.07309678
137	0x2d	0.059806455
138	0xda	-0.050503228
139	0xf6	-0.013290323
140	0xdd	-0.04651613
141	0xbb	-0.091703236
142	0x09	0.011961292
143	0x43	0.08904517
144	0x01	0.0013290324
145	0x3a	0.07708388
146	0x09	0.011961292
147	0x22	0.0451871
148	0x07	0.009303226
149	0xe9	-0.030567745
150	0x08	0.010632259
151	0x0b	0.014619356
152	0x10	0.021264518
153	0xde	-0.0451871
154	0xf4	-0.015948389
155	0xec	-0.026580647
156	0xf0	-0.021264518
157	0x27	0.051832262
158	0xf8	-0.010632259
159	0xf0	-0.021264518
160	0x24	0.047845166
161	0x02	0.0026580647
162	0x0d	0.017277421
163	0xde	-0.0451871
164	0xfe	-0.0026580647
165	0x08	0.010632259
166	0x07	0.009303226
167	0x09	0.011961292
168	0x0e	0.018606452
169	0x1a	0.034554843
170	0xdc	-0.047845166
171	0xfd	-0.003987097
172	0xfd	-0.003987097
173	0xef	-0.02259355
174	0x3a	0.07708388
175	0xe2	-0.03987097
176	0x35	0.07043871
177	0xe7	-0.03322581
178	0xde	-0.0451871
179	0x16	0.029238712
180	0xf2	-0.018606452
181	0x0c	0.015948389
182	0x01	0.0013290324
183	0xe6	-0.034554843
184	0x0f	0.019935485
185	0xdb	-0.049174197
186	0x02	0.0026580647
187	0x3b	0.078412905
188	0xef	-0.02259355
189	0xe5	-0.035883874
190	0x02	0.0026580647
191	0x13	0.025251614
192	0xff	-0.0013290324
193	0xfd	-0.003987097
194	0x14	0.026580647
195	0xef	-0.02259355
196	0x25	0.049174197
197	0x32	0.06645162
198	0x75	0.15549679
199	0x7f	0.1687871
200	0x06	0.007974194
201	0xfe	-0.0026580647
202	0xff	-0.0013290324
203	0x1f	0.041200005
204	0x20	0.042529035
205	0xfd	-0.003987097
206	0x09	0.011961292
207	0xf6	-0.013290323
208	0x2b	0.05714839
209	0x02	0.0026580647
210	0xe3	-0.03854194
211	0xd9	-0.051832262
212	0x0c	0.015948389
213	0xf8	-0.010632259
214	0xf5	-0.014619356
215	0xd3	-0.059806455
216	0xdd	-0.04651613
217	0x0f	0.019935485
218	0x02	0.0026580647
219	0xe7	-0.03322581
220	0x15	0.02790968
221	0xfd	-0.003987097
222	0xe0	-0.042529035
223	0x04	0.0053161294
224	0x06	0.007974194
225	0xe6	-0.034554843
226	0x12	0.023922583
227	0xec	-0.026580647
228	0x27	0.051832262
229	0xfb	-0.0066451617
230	0xe5	-0.035883874
231	0xe7	-0.03322581
232	0x13	0.025251614
233	0xde	-0.0451871
234	0xeb	-0.02790968
235	0x14	0.026580647
236	0xf8	-0.010632259
237	0x08	0.010632259
238	0xed	-0.025251614
239	0x01	0.0013290324
240	0x09	0.011961292
241	0xec	-0.026580647
242	0x04	0.0053161294
243	0x00	0.0
244	0x02	0.0026580647
245	0xff	-0.0013290324
246	0x11	0.02259355
247	0xf4	-0.015948389
248	0xf0	-0.021264518
249	0x11	0.02259355
250	0x15	0.02790968
251	0xee	-0.023922583
252	0xfa	-0.007974194
253	0x04	0.0053161294
254	0x02	0.0026580647
255	0xef	-0.02259355

conv_1d_time_stacked/conv1d/conv1d_bias f4 [16]
0	0xbead9e98	-0.3391006
1	0x3f4ddac3	0.8041193
2	0xbf7b7507	-0.98225445
3	0xbfed3048	-1.8530359
4	0x3e895752	0.26824433
5	0xbfa8ff54	-1.320292
6	0xbf538d06	-0.8263706
7	0x3fa8d4d9	1.3189956
8	0xbd2ae750	-0.041724503
9	0xbfc72fca	-1.5561459
10	0xbf91c862	-1.1389277
11	0x3f54afb8	0.83080626
12	0xbf90d388	-1.1314554
13	0x3fc369b8	1.5266638
14	0xbfab5a8d	-1.3387009
15	0x3f85cb28	1.0452623

conv_1d_time_stacked/conv1d_1/conv1d/ExpandDims_1 i1 [32, 1, 3, 16] scale=0.007017337 zero_point=0
0	0x1e	0.2105201
1	0x4f	0.5543696
2	0xdc	-0.25262412
3	0x3c	0.4210402
4	0x27	0.27367613
5	0x28	0.28069347
6	0x05	0.035086684
7	0x33	0.35788417
8	0x1c	0.19648543
9	0x9a	-0.71576834
10	0xc6	-0.40700555
11	0x03	0.02105201
12	0x40	0.44910955
13	0x25	0.25964147
14	0xfa	-0.04210402
15	0x1b	0.18946809
16	0x81	-0.8912018
17	0xfd	-0.02105201
18	0x10	0.11227739
19	0xef	-0.119294725
20	0x2e	0.32279748
21	0xdf	-0.23157212
22	0xfd	-0.02105201
23	0x23	0.24560678
24	0xa6	-0.6315603
25	0xc3	-0.42805755
26	0xb2	-0.54735225
27	0xe4	-0.19648543
28	0xde	-0.23858945
29	0x06	0.04210402
30	0xda	-0.26665878
31	0x3e	0.43507487
32	0x02	0.014034674
33	0xc3	-0.42805755
34	0xfc	-0.028069347
35	0x1e	0.2105201
36	0x1c	0.19648543
37	0x0f	0.10526005
38	0x14	0.14034674
39	0xf9	-0.049121358
40	0xef	-0.119294725
41	0x0c	0.08420804
42	0x1e	0.2105201
43	0xb1	-0.5543696
44	0x59	0.62454295
45	0xe2	-0.2105201
46	0x29	0.28771082
47	0xa1	-0.666647
48	0xb0	-0.56138694
49	0x03	0.02105201
50	0xf0	-0.11227739
51	0x46	0.49121356
52	0xf1	-0.10526005
53	0x2a	0.29472816
54	0xea	-0.15438141
55	0x06	0.04210402
56	0xfd	-0.02105201
57	0xce	-0.35086685
58	0xd8	-0.28069347
59	0xf4	-0.08420804
60	0x2a	0.29472816
61	0x00	0.0
62	0xcb	-0.37191886
63	0xeb	-0.14736408
64	0xb9	-0.4982309
65	0xe7	-0.17543343
66	0xd7	-0.28771082
67	0x1f	0.21753743
68	0xee	-0.12631206
69	0x3d	0.42805755
70	0x49	0.51226556
71	0x25	0.25964147
72	0xfe	-0.014034674
73	0x05	0.035086684
74	0x22	0.23858945
75	0xe5	-0.18946809
76	0xfe	-0.014034674
77	0xd6	-0.29472816
78	0xd1	-0.32981482
79	0xfb	-0.035086684
80	0xf6	-0.07017337
81	0x0b	0.077190705
82	0x05	0.035086684
83	0xfc	-0.028069347
84	0xfc	-0.028069347
85	0x12	0.12631206
86	0x34	0.3649015
87	0xbe	-0.46314424
88	0xdf	-0.23157212
89	0xe9	-0.16139874
90	0x42	0.46314424
91	0x27	0.27367613
92	0x21	0.23157212
93	0x30	0.33683217
94	0x0c	0.08420804
95	0xe9	-0.16139874
96	0x34	0.3649015
97	0xcc	-0.3649015
98	0x1b	0.18946809
99	0xec	-0.14034674
100	0xe4	-0.19648543
101	0x34	0.3649015
102	0xff	-0.007017337
103	0x1d	0.20350277
104	0xe1	-0.21753743
105	0x47	0.4982309
106	0xda	-0.26665878
107	0xfc	-0.028069347
108	0x15	0.14736408
109	0xff	-0.007017337
110	0x51	0.56840426
111	0xea	-0.15438141
112	0x1a	0.18245076
113	0xde	-0.23858945
114	0xc6	-0.40700555
115	0xc7	-0.3999882
116	0xe5	-0.18946809
117	0x2c	0.30876282
118	0x31	0.3438495
119	0x33	0.35788417
120	0x2e	0.32279748
121	0xd7	-0.28771082
122	0xdd	-0.24560678
123	0x29	0.28771082
124	0x00	0.0
125	0x11	0.119294725
126	0xf0	-0.11227739
127	0xf9	-0.049121358
128	0xea	-0.15438141
129	0x32	0.35086685
130	0xee	-0.12631206
131	0x0b	0.077190705
132	0xf6	-0.07017337
133	0x2a	0.29472816
134	0x1f	0.21753743
135	0xee	-0.12631206
136	0x1a	0.18245076
137	0x15	0.14736408
138	0x1e	0.2105201
139	0x06	0.04210402
140	0x42	0.46314424
141	0xea	-0.15438141
142	0x2a	0.29472816
143	0xfe	-0.014034674
144	0x1f	0.21753743
145	0xfa	-0.04210402
146	0xde	-0.23858945
147	0xc1	-0.4420922
148	0x10	0.11227739
149	0xc6	-0.40700555
150	0x19	0.17543343
151	0xfc	-0.028069347
152	0x03	0.02105201
153	0xd8	-0.28069347
154	0x2e	0.32279748
155	0xfa	-0.04210402
156	0xd9	-0.27367613
157	0xe3	-0.20350277
158	0x03	0.02105201
159	0x26	0.26665878
160	0x24	0.25262412
161	0x31	0.3438495
162	0xfe	-0.014034674
163	0xb6	-0.51928294
164	0xc9	-0.38595352
165	0x14	0.14034674
166	0xe6	-0.18245076
167	0xe5	-0.18946809
168	0x1a	0.18245076
169	0xee	-0.12631206
170	0x2a	0.29472816
171	0x26	0.26665878
172	0xe2	-0.2105201
173	0xef	-0.119294725
174	0x2f	0.32981482
175	0x2a	0.29472816
176	0x21	0.23157212
177	0xfe	-0.014034674
178	0x19	0.17543343
179	0xd9	-0.27367613
180	0x0e	0.098242715
181	0x25	0.25964147
182	0xfd	-0.02105201
183	0xff	-0.007017337
184	0x17	0.16139874
185	0x15	0.14736408
186	0x0d	0.09122538
187	0x0b	0.077190705
188	0x0b	0.077190705
189	0x09	0.06315603
190	0xef	-0.119294725
191	0xfb	-0.035086684
192	0x0f	0.10526005
193	0xd6	-0.29472816
194	0x17	0.16139874
195	0xf5	-0.077190705
196	0x41	0.4561269
197	0x39	0.3999882
198	0xa9	-0.6105083
199	0x3f	0.4420922
200	0x0d	0.09122538
201	0xec	-0.14034674
202	0x29	0.28771082
203	0x2c	0.30876282
204	0x31	0.3438495
205	0xee	-0.12631206
206	0x0a	0.07017337
207	0xc5	-0.41402286
208	0xef	-0.119294725
209	0xfb	-0.035086684
210	0xf9	-0.049121358
211	0x2a	0.29472816
212	0x16	0.15438141
213	0x53	0.58243895
214	0xde	-0.23858945
215	0x25	0.25964147
216	0x2d	0.31578016
217	0xeb	-0.14736408
218	0x68	0.729803
219	0x20	0.22455478
220	0xcd	-0.35788417
221	0x33	0.35788417
222	0x3a	0.40700555
223	0x14	0.14034674
224	0x1a	0.18245076
225	0x18	0.16841608
226	0xfd	-0.02105201
227	0xdc	-0.25262412
228	0xb8	-0.50524825
229	0xec	-0.14034674
230	0x9f	-0.68068165
231	0xb6	-0.51928294
232	0x12	0.12631206
233	0xfd	-0.02105201
234	0x16	0.15438141
235	0xc4	-0.4210402
236	0x17	0.16139874
237	0x14	0.14034674
238	0xfe	-0.014034674
239	0x3f	0.4420922
240	0xe7	-0.17543343
241	0xd6	-0.29472816
242	0xb4	-0.53331757
243	0xf9	-0.049121358
244	0x05	0.035086684
245	0xe3	-0.20350277
246	0xc9	-0.38595352
247	0xc0	-0.44910955
248	0x1b	0.18946809
249	0xeb	-0.14736408
250	0x27	0.27367613
251	0x0e	0.098242715
252	0xd7	-0.28771082
253	0xe3	-0.20350277
254	0x1e	0.2105201
255	0xe9	-0.16139874

conv_1d_time_stacked/conv1d_1/conv1d_bias f4 [32]
0	0x3e05d469	0.1306931
1	0x3e2ff778	0.17184246
2	0xbf8794df	-1.0592307
3	0x3ddfa08c	0.10919294
4	0xbed3bdea	-0.4135583
5	0x3e8872ac	0.26649988
6	0xbe9d9f51	-0.3078561
7	0x3f3758d1	0.716199
8	0xbf1e4851	-0.61829096
9	0x3e0f5b64	0.13999707
10	0xbf136d1e	-0.57588375
11	0x3f46d71d	0.77671987
12	0x3e9ed9b8	0.3102548
13	0x3f435328	0.7629876
14	0xbe887b16	-0.26656407
15	0x3f4352da	0.76298296
16	0xbf9df9a4	-1.2341809
17	0x3f2abadf	0.6669139
18	0xbf09fc2c	-0.5390041
19	0xbf9491f6	-1.1607044
20	0xbec89ec3	-0.39183626
21	0x3f24d6d8	0.64390326
22	0x3f7ab246	0.97928274
23	0xbf4b1780	-0.79332733
24	0xbee14d1c	-0.44004142
25	0xbf7cc174	-0.98732686
26	0x3f1a32aa	0.6023356
27	0xbf094897	-0.5362639
28	0xbf3a49c0	-0.72768784
29	0x3e8749bd	0.26423445
30	0x3e70fecc	0.23534697
31	0x3e572d10	0.21013284

conv_1d_time_stacked/conv1d_2/conv1d/ExpandDims_1 i1 [32, 1, 3, 32] scale=0.00353573 zero_point=0
0	0x0d	0.04596449
1	0xd8	-0.1414292
2	0x06	0.02121438
3	0x25	0.13082202
4	0xd9	-0.13789347
5	0x27	0.13789347
6	0x32	0.1767865
7	0xfc	-0.01414292
8	0x08	0.02828584
9	0x14	0.0707146
10	0xe4	-0.09900044
11	0x29	0.14496493
12	0x1f	0.10960763
13	0xfd	-0.01060719
14	0x18	0.08485752
15	0x13	0.06717887
16	0xd1	-0.16617931
17	0x18	0.08485752
18	0xe4	-0.09900044
19	0xdd	-0.12375055
20	0xc8	-0.19800088
21	0xd8	-0.1414292
22	0x1e	0.106071904
23	0x12	0.06364314
24	0x1a	0.09192898
25	0xfa	-0.02121438
26	0x14	0.0707146
27	0x47	0.25103682
28	0xf4	-0.04242876
29	0x05	0.01767865
30	0xdb	-0.13082202
31	0x02	0.00707146
32	0x0a	0.0353573
33	0x00	0.0
34	0x23	0.12375055
35	0xf5	-0.03889303
36	0xdd	-0.12375055
37	0x30	0.16971505
38	0xef	-0.06010741
39	0xfc	-0.01414292
40	0x14	0.0707146
41	0x20	0.11314336
42	0xce	-0.1767865
43	0x28	0.1414292
44	0x02	0.00707146
45	0x10	0.05657168
46	0x04	0.01414292
47	0xf2	-0.04950022
48	0xf6	-0.0353573
49	0x1a	0.09192898
50	0x39	0.20153661
51	0xfe	-0.00707146
52	0x04	0.01414292
53	0xfb	-0.01767865
54	0xe9	-0.08132179
55	0x2c	0.15557212
56	0xcf	-0.17325078
57	0x18	0.08485752
58	0xee	-0.06364314
59	0x35	0.1873937
60	0x17	0.08132179
61	0x03	0.01060719
62	0xf5	-0.03889303
63	0x09	0.03182157
64	0xb4	-0.26871547
65	0x0c	0.04242876
66	0x0e	0.04950022
67	0x1c	0.09900044
68	0x1c	0.09900044
69	0xfb	-0.01767865
70	0x23	0.12375055
71	0x1f	0.10960763
72	0xd8	-0.1414292
73	0x02	0.00707146
74	0xe3	-0.10253617
75	0x33	0.18032223
76	0x02	0.00707146
77	0xfa	-0.02121438
78	0xff	-0.00353573
79	0x0c	0.04242876
80	0x05	0.01767865
81	0x01	0.00353573
82	0x11	0.06010741
83	0x13	0.06717887
84	0xf8	-0.02828584
85	0xd5	-0.1520364
86	0x0f	0.053035952
87	0x01	0.00353573
88	0xe1	-0.10960763
89	0x08	0.02828584
90	0xfe	-0.00707146
91	0x0a	0.0353573
92	0x16	0.07778606
93	0xbd	-0.2368939
94	0xb5	-0.26517975
95	0x16	0.07778606
96	0x11	0.06010741
97	0x47	0.25103682
98	0x01	0.00353573
99	0xee	-0.06364314
100	0x0a	0.0353573
101	0x3b	0.20860808
102	0x15	0.07425033
103	0x2d	0.15910785
104	0x51	0.28639415
105	0x23	0.12375055
106	0x40	0.22628672
107	0x27	0.13789347
108	0xff	-0.00353573
109	0x4d	0.27225122
110	0x16	0.07778606
111	0x0a	0.0353573
112	0x43	0.2368939
113	0x8f	-0.3995375
114	0x08	0.02828584
115	0xe5	-0.095464714
116	0x16	0.07778606
117	0x36	0.19092943
118	0x23	0.12375055
119	0x08	0.02828584
120	0xd9	-0.13789347
121	0x08	0.02828584
122	0xf0	-0.05657168
123	0x30	0.16971505
124	0xd8	-0.1414292
125	0x59	0.31467998
126	0x01	0.00353573
127	0x19	0.08839325
128	0xea	-0.07778606
129	0x10	0.05657168
130	0x09	0.03182157
131	0xc9	-0.19446516
132	0x28	0.1414292
133	0xd0	-0.16971505
134	0x1a	0.09192898
135	0xfa	-0.02121438
136	0x37	0.19446516
137	0x2b	0.1520364
138	0x21	0.116679095
139	0xe3	-0.10253617
140	0xf9	-0.02475011
141	0xf1	-0.053035952
142	0xd2	-0.16264358
143	0xd4	-0.15557212
144	0x22	0.12021482
145	0xe4	-0.09900044
146	0xec	-0.0707146
147	0x0d	0.04596449
148	0xdb	-0.13082202
149	0xe7	-0.08839325
150	0x26	0.13435774
151	0xeb	-0.07425033
152	0xfa	-0.02121438
153	0xcb	-0.1873937
154	0x22	0.12021482
155	0xce	-0.1767865
156	0xff	-0.00353573
157	0x19	0.08839325
158	0xce	-0.1767865
159	0xe5	-0.095464714
160	0x14	0.0707146
161	0xc5	-0.20860808
162	0xaf	-0.28639415
163	0xa7	-0.31467998
164	0x14	0.0707146
165	0xf0	-0.05657168
166	0x16	0.07778606
167	0xd6	-0.14850067
168	0xb7	-0.2581083
169	0xd7	-0.14496493
170	0xb5	-0.26517975
171	0x1b	0.095464714
172	0xbe	-0.23335819
173	0x12	0.06364314
174	0xbb	-0.24396537
175	0x1c	0.09900044
176	0xb1	-0.27932268
177	0xf4	-0.04242876
178	0x02	0.00707146
179	0x0e	0.04950022
180	0xbc	-0.24042964
181	0xd8	-0.1414292
182	0x02	0.00707146
183	0x06	0.02121438
184	0xdd	-0.12375055
185	0x0f	0.053035952
186	0xee	-0.06364314
187	0x0a	0.0353573
188	0xd6	-0.14850067
189	0x34	0.18385796
190	0x19	0.08839325
191	0xfc	-0.01414292
192	0x0c	0.04242876
193	0xf6	-0.0353573
194	0x21	0.116679095
195	0x18	0.08485752
196	0xc4	-0.21214381
197	0xf4	-0.04242876
198	0xfe	-0.00707146
199	0x1d	0.10253617
200	0xe9	-0.08132179
201	0x03	0.01060719
202	0xf7	-0.03182157
203	0x18	0.08485752
204	0x2d	0.15910785
205	0x2b	0.1520364
206	0x0e	0.04950022
207	0x1c	0.09900044
208	0x29	0.14496493
209	0x06	0.02121438
210	0xff	-0.00353573
211	0xd0	-0.16971505
212	0x24	0.12728629
213	0xe5	-0.095464714
214	0x38	0.19800088
215	0xe2	-0.106071904
216	0x1e	0.106071904
217	0xe2	-0.106071904
218	0xc3	-0.21567954
219	0x05	0.01767865
220	0x2b	0.1520364
221	0x19	0.08839325
222	0x40	0.22628672
223	0x01	0.00353573
224	0xec	-0.0707146
225	0x1f	0.10960763
226	0xfa	-0.02121438
227	0xe8	-0.08485752
228	0xd2	-0.16264358
229	0x03	0.01060719
230	0xdf	-0.116679095
231	0xdc	-0.12728629
232	0xe3	-0.10253617
233	0x2c	0.15557212
234	0xc9	-0.19446516
235	0x21	0.116679095
236	0x05	0.01767865
237	0xf2	-0.04950022
238	0xdb	-0.13082202
239	0xf9	-0.02475011
240	0x29	0.14496493
241	0xf6	-0.0353573
242	0xd6	-0.14850067
243	0x1b	0.095464714
244	0xda	-0.13435774
245	0xf7	-0.03182157
246	0xe1	-0.10960763
247	0x29	0.14496493
248	0xd9	-0.13789347
249	0xe7	-0.08839325
250	0x09	0.03182157
251	0xf3	-0.04596449
252	0xe4	-0.09900044
253	0x29	0.14496493
254	0x24	0.12728629
255	0xec	-0.0707146

conv_1d_time_stacked/conv1d_2/conv1d_bias f4 [32]
0	0xbe19e512	-0.1502879
1	0x3ecb8c56	0.39755505
2	0x3e8233d8	0.2543018
3	0x3f2cfd7f	0.67574304
4	0x3ecf4269	0.40480354
5	0xbd8b6fa0	-0.068084
6	0x3f4b8e14	0.7951367
7	0xbf86417c	-1.0488734
8	0xbf6556be	-0.89585483
9	0x3f8ba481	1.0909578
10	0xbe4063c1	-0.18788053
11	0x3e1ca7c4	0.15298373
12	0xbf3bd9fb	-0.73379487
13	0xbe83c0ea	-0.2573312
14	0x3f02b0f5	0.51051265
15	0x3eb943b2	0.3618446
16	0x3f2eb0ad	0.68238336
17	0xbe474fb5	-0.19464
18	0x3eb0c46a	0.34524852
19	0x3e0ff667	0.14058839
20	0x3ea2793d	0.31733122
21	0xbe6ca0f1	-0.2310827
22	0x3def500a	0.11685188
23	0xbf682634	-0.90683293
24	0x3da107cc	0.07862815
25	0x3ee546db	0.4478062
26	0xbdca5674	-0.09879771
27	0x3f1e9414	0.619447
28	0x3e831b78	0.25606894
29	0xbe924e3f	-0.28575322
30	0xbf7d5c92	-0.98969376
31	0x3e9c9f1b	0.30590138

conv_1d_time_stacked/conv1d_3/conv1d/ExpandDims_1 i1 [64, 1, 3, 32] scale=0.0054653957 zero_point=0
0	0xee	-0.09837712
1	0x21	0.18035805
2	0x0b	0.060119353
3	0x0c	0.06558475
4	0x15	0.11477331
5	0x04	0.021861583
6	0x10	0.08744633
7	0x0a	0.054653957
8	0xef	-0.09291173
9	0x16	0.12023871
10	0x20	0.17489266
11	0x02	0.0109307915
12	0x14	0.109307915
13	0xf9	-0.03825777
14	0xec	-0.109307915
15	0x08	0.043723166
16	0x1b	0.1475657
17	0x10	0.08744633
18	0xf4	-0.06558475
19	0x03	0.016396187
20	0xe8	-0.1311695
21	0xff	-0.0054653957
22	0xe3	-0.15849647
23	0xef	-0.09291173
24	0x0b	0.060119353
25	0x0a	0.054653957
26	0xf9	-0.03825777
27	0x17	0.12570411
28	0xeb	-0.11477331
29	0x04	0.021861583
30	0x0d	0.071050145
31	0x08	0.043723166
32	0xfe	-0.0109307915
33	0x0b	0.060119353
34	0x19	0.13663489
35	0x01	0.0054653957
36	0xef	-0.09291173
37	0x08	0.043723166
38	0x1c	0.15303108
39	0xeb	-0.11477331
40	0x0e	0.07651554
41	0x05	0.027326979
42	0x14	0.109307915
43	0x1b	0.1475657
44	0xfd	-0.016396187
45	0xf0	-0.08744633
46	0x13	0.10384252
47	0x02	0.0109307915
48	0x28	0.21861583
49	0x0f	0.081980936
50	0xec	-0.109307915
51	0x02	0.0109307915
52	0xf8	-0.043723166
53	0x05	0.027326979
54	0x04	0.021861583
55	0xeb	-0.11477331
56	0xee	-0.09837712
57	0x0e	0.07651554
58	0xf9	-0.03825777
59	0x1b	0.1475657
60	0xf5	-0.060119353
61	0xee	-0.09837712
62	0x0c	0.06558475
63	0x02	0.0109307915
64	0x05	0.027326979
65	0x01	0.0054653957
66	0x0a	0.054653957
67	0x1b	0.1475657
68	0xfd	-0.016396187
69	0xed	-0.10384252
70	0x23	0.19128886
71	0xff	-0.0054653957
72	0xff	-0.0054653957
73	0xf4	-0.06558475
74	0x12	0.09837712
75	0x12	0.09837712
76	0xf3	-0.071050145
77	0xfb	-0.027326979
78	0x09	0.04918856
79	0xfd	-0.016396187
80	0x05	0.027326979
81	0x06	0.032792374
82	0x0a	0.054653957
83	0xe6	-0.14210029
84	0xf1	-0.081980936
85	0x00	0.0
86	0x16	0.12023871
87	0xeb	-0.11477331
88	0xf4	-0.06558475
89	0x13	0.10384252
90	0x04	0.021861583
91	0x1f	0.16942728
92	0xfe	-0.0109307915
93	0xfc	-0.021861583
94	0xde	-0.18582346
95	0xf0	-0.08744633
96	0xe9	-0.12570411
97	0xfd	-0.016396187
98	0xf1	-0.081980936
99	0x09	0.04918856
100	0x04	0.021861583
101	0x29	0.22408122
102	0xe1	-0.16942728
103	0x16	0.12023871
104	0x15	0.11477331
105	0xe1	-0.16942728
106	0xf6	-0.054653957
107	0xf6	-0.054653957
108	0x15	0.11477331
109	0xf3	-0.071050145
110	0xe0	-0.17489266
111	0x26	0.20768504
112	0x04	0.021861583
113	0x20	0.17489266
114	0xfe	-0.0109307915
115	0x1e	0.16396187
116	0x05	0.027326979
117	0xe5	-0.1475657
118	0x18	0.1311695
119	0xd8	-0.21861583
120	0x1f	0.16942728
121	0xe6	-0.14210029
122	0x09	0.04918856
123	0xdc	-0.19675425
124	0x06	0.032792374
125	0x4a	0.40443927
126	0xf8	-0.043723166
127	0xe1	-0.16942728
128	0x15	0.11477331
129	0x16	0.12023871
130	0x1c	0.15303108
131	0x0f	0.081980936
132	0xf8	-0.043723166
133	0xfd	-0.016396187
134	0xf7	-0.04918856
135	0x06	0.032792374
136	0xeb	-0.11477331
137	0xdf	-0.18035805
138	0xf5	-0.060119353
139	0xea	-0.12023871
140	0x09	0.04918856
141	0xf7	-0.04918856
142	0x02	0.0109307915
143	0xd8	-0.21861583
144	0xf5	-0.060119353
145	0x11	0.09291173
146	0xf1	-0.081980936
147	0xf8	-0.043723166
148	0xe3	-0.15849647
149	0xe6	-0.14210029
150	0xeb	-0.11477331
151	0xf9	-0.03825777
152	0x17	0.12570411
153	0xd8	-0.21861583
154	0xfa	-0.032792374
155	0xc9	-0.30059677
156	0xeb	-0.11477331
157	0x0c	0.06558475
158	0x1d	0.15849647
159	0xe7	-0.13663489
160	0xe6	-0.14210029
161	0x0f	0.081980936
162	0x21	0.18035805
163	0xef	-0.09291173
164	0xf2	-0.07651554
165	0xdd	-0.19128886
166	0x23	0.19128886
167	0xf9	-0.03825777
168	0xf0	-0.08744633
169	0x00	0.0
170	0xe5	-0.1475657
171	0x01	0.0054653957
172	0xf4	-0.06558475
173	0xfb	-0.027326979
174	0xf8	-0.043723166
175	0xe7	-0.13663489
176	0xd9	-0.21315044
177	0x0a	0.054653957
178	0xfe	-0.0109307915
179	0xdb	-0.20221964
180	0xf8	-0.043723166
181	0xf7	-0.04918856
182	0xea	-0.12023871
183	0x00	0.0
184	0xe4	-0.15303108
185	0x03	0.016396187
186	0x06	0.032792374
187	0x0b	0.060119353
188	0xe7	-0.13663489
189	0x05	0.027326979
190	0xf0	-0.08744633
191	0x0e	0.07651554
192	0xf8	-0.043723166
193	0xf6	-0.054653957
194	0x07	0.03825777
195	0x0d	0.071050145
196	0x07	0.03825777
197	0x1b	0.1475657
198	0xf5	-0.060119353
199	0xf5	-0.060119353
200	0x07	0.03825777
201	0xe2	-0.16396187
202	0x1c	0.15303108
203	0x15	0.11477331
204	0x13	0.10384252
205	0x10	0.08744633
206	0xfa	-0.032792374
207	0x21	0.18035805
208	0xe8	-0.1311695
209	0x14	0.109307915
210	0x13	0.10384252
211	0x0f	0.081980936
212	0x05	0.027326979
213	0x00	0.0
214	0x08	0.043723166
215	0x03	0.016396187
216	0x0c	0.06558475
217	0xf8	-0.043723166
218	0x01	0.0054653957
219	0xf4	-0.06558475
220	0x07	0.03825777
221	0x00	0.0
222	0x07	0.03825777
223	0xed	-0.10384252
224	0xff	-0.0054653957
225	0x06	0.032792374
226	0x09	0.04918856
227	0x03	0.016396187
228	0x0c	0.06558475
229	0x06	0.032792374
230	0xff	-0.0054653957
231	0xfa	-0.032792374
232	0xf6	-0.054653957
233	0x02	0.0109307915
234	0x11	0.09291173
235	0x11	0.09291173
236	0x1d	0.15849647
237	0xf4	-0.06558475
238	0x0f	0.081980936
239	0x19	0.13663489
240	0xeb	-0.11477331
241	0x17	0.12570411
242	0x07	0.03825777
243	0x05	0.027326979
244	0xeb	-0.11477331
245	0x02	0.0109307915
246	0xef	-0.09291173
247	0xee	-0.09837712
248	0xfe	-0.0109307915
249	0x0f	0.081980936
250	0x04	0.021861583
251	0xef	-0.09291173
252	0x09	0.04918856
253	0x02	0.0109307915
254	0x14	0.109307915
255	0x02	0.0109307915

conv_1d_time_stacked/conv1d_3/conv1d_bias f4 [64]
0	0xbf1fc295	-0.62406284
1	0x3f78bc0d	0.9716194
2	0xbf42fdc4	-0.76168466
3	0x3ec1f732	0.37883908
4	0x3eb31e44	0.34984028
5	0x3da476e2	0.080304876
6	0x3f1037c0	0.5633507
7	0xbd9526c5	-0.07282785
8	0x3f144cfc	0.5792997
9	0x3da8baf3	0.08238783
10	0x3b2c4ae0	0.0026289746
11	0x3e3c0ba0	0.1836381
12	0x3c89de16	0.016829532
13	0x3dc11557	0.094278984
14	0xbf2a9b38	-0.66643095
15	0x3f29cbda	0.6632668
16	0xbfc0e001	-1.506836
17	0xbe1ce879	-0.15323056
18	0xbf990c32	-1.1956847
19	0xbe8a625a	-0.2702816
20	0x3ef199e2	0.47187716
21	0xbf02430a	-0.50883543
22	0x3f0ee132	0.5581237
23	0xbf18942c	-0.5960109
24	0xbc6f306a	-0.014598945
25	0xbebfc04a	-0.37451392
26	0x3e2883c4	0.16456515
27	0xbd542b8e	-0.05179935
28	0x3e2846a3	0.16433196
29	0xbf10cfa9	-0.56566864
30	0xbd2d08db	-0.042244773
31	0x3ea7cf21	0.32775214
32	0x3e9c7718	0.3055961
33	0xbdecf18c	-0.11569509
34	0xba8e1b90	-0.0010841954
35	0xbe55f839	-0.2089547
36	0x3cb1ff20	0.021728098
37	0xbdd1d92a	-0.10246499
38	0xbd557f84	-0.05212356
39	0xbf3d3b3f	-0.7391853
40	0x3f1bfefa	0.6093594
41	0xbe7b4eb1	-0.24541737
42	0xbf4d5b36	-0.802173
43	0xbd62e017	-0.05538949
44	0x3e3418b2	0.17587546
45	0xbebf50e4	-0.37366402
46	0x3f537860	0.8260555
47	0xbde901ff	-0.11377334
48	0xbe5dcc4e	-0.21659967
49	0xbdec758a	-0.11545856
50	0xbec94db6	-0.393171
51	0xbe3b8dbc	-0.18315786
52	0x3f213f03	0.62986773
53	0x3f901a69	1.125806
54	0x3e0ebdbf	0.1393957
55	0x3f44f81e	0.76941097
56	0xbb9cc192	-0.0047838176
57	0x3e340680	0.17580605
58	0x3d8754a8	0.06607944
59	0x3f58aac6	0.8463558
60	0x3eb9a903	0.36261758
61	0x3e7bccaf	0.245898
62	0x3d2c0e00	0.04200554
63	0xbfbdef33	-1.4838623

conv_1d_time_stacked/conv1d_4/conv1d/ExpandDims_1 i1 [64, 1, 3, 64] scale=0.0020114225 zero_point=0
0	0x00	0.0
1	0x09	0.018102802
2	0x11	0.034194183
3	0x0d	0.026148492
4	0xea	-0.044251297
5	0x16	0.044251297
6	0x2f	0.094536856
7	0xf4	-0.02413707
8	0x16	0.044251297
9	0xfe	-0.004022845
10	0x1d	0.058331255
11	0xef	-0.034194183
12	0x14	0.04022845
13	0x0b	0.022125648
14	0x2a	0.08447975
15	0xd9	-0.07844548
16	0xf5	-0.022125648
17	0xef	-0.034194183
18	0x14	0.04022845
19	0x25	0.074422635
20	0xf6	-0.020114224
21	0x36	0.108616814
22	0x16	0.044251297
23	0xe2	-0.060342677
24	0x16	0.044251297
25	0x11	0.034194183
26	0x2f	0.094536856
27	0xdf	-0.06637695
28	0x01	0.0020114225
29	0xf7	-0.018102802
30	0xf6	-0.020114224
31	0x34	0.10459397
32	0x27	0.07844548
33	0x0d	0.026148492
34	0xfe	-0.004022845
35	0xfb	-0.010057112
36	0x1e	0.060342677
37	0x0d	0.026148492
38	0x22	0.068388365
39	0xfa	-0.012068535
40	0x02	0.004022845
41	0x25	0.074422635
42	0x26	0.07643405
43	0x1c	0.056319833
44	0x05	0.010057112
45	0x0d	0.026148492
46	0xc7	-0.114651084
47	0xe5	-0.054308407
48	0x06	0.012068535
49	0x32	0.100571126
50	0xe8	-0.04827414
51	0xf6	-0.020114224
52	0x0b	0.022125648
53	0xe4	-0.056319833
54	0xf8	-0.01609138
55	0x06	0.012068535
56	0x3c	0.120685354
57	0xe9	-0.04626272
58	0x13	0.038217027
59	0xeb	-0.042239875
60	0x0a	0.020114224
61	0xff	-0.0020114225
62	0x1f	0.0623541
63	0x00	0.0
64	0xe4	-0.056319833
65	0x15	0.042239875
66	0xf4	-0.02413707
67	0xfd	-0.0060342676
68	0xe2	-0.060342677
69	0xe4	-0.056319833
70	0xe5	-0.054308407
71	0xe7	-0.050285563
72	0xe1	-0.0623541
73	0xdc	-0.07241121
74	0xf3	-0.026148492
75	0xc1	-0.12671962
76	0x05	0.010057112
77	0xd4	-0.08850259
78	0x01	0.0020114225
79	0xc8	-0.112639666
80	0xef	-0.034194183
81	0xe1	-0.0623541
82	0xe8	-0.04827414
83	0xf4	-0.02413707
84	0xff	-0.0020114225
85	0x15	0.042239875
86	0xf6	-0.020114224
87	0x01	0.0020114225
88	0x17	0.04626272
89	0xe1	-0.0623541
90	0x03	0.0060342676
91	0xe7	-0.050285563
92	0x10	0.03218276
93	0x26	0.07643405
94	0xe1	-0.0623541
95	0xf7	-0.018102802
96	0x11	0.034194183
97	0xda	-0.07643405
98	0xef	-0.034194183
99	0xfa	-0.012068535
100	0xf0	-0.03218276
101	0xfa	-0.012068535
102	0x02	0.004022845
103	0xd7	-0.08246832
104	0x28	0.0804569
105	0x18	0.04827414
106	0xf6	-0.020114224
107	0x37	0.11062824
108	0x17	0.04626272
109	0xea	-0.044251297
110	0xe2	-0.060342677
111	0x1d	0.058331255
112	0xfc	-0.00804569
113	0xdf	-0.06637695
114	0xfd	-0.0060342676
115	0x18	0.04827414
116	0xf8	-0.01609138
117	0x08	0.01609138
118	0xf8	-0.01609138
119	0xf3	-0.026148492
120	0x1b	0.054308407
121	0x0d	0.026148492
122	0x02	0.004022845
123	0x23	0.07039979
124	0xfc	-0.00804569
125	0x00	0.0
126	0xed	-0.038217027
127	0xdc	-0.07241121
128	0xfc	-0.00804569
129	0xde	-0.068388365
130	0xe3	-0.058331255
131	0xfa	-0.012068535
132	0x17	0.04626272
133	0x37	0.11062824
134	0xff	-0.0020114225
135	0x1b	0.054308407
136	0x18	0.04827414
137	0xdf	-0.06637695
138	0xf1	-0.030171338
139	0xce	-0.100571126
140	0xed	-0.038217027
141	0x14	0.04022845
142	0xe5	-0.054308407
143	0x2c	0.08850259
144	0xdd	-0.07039979
145	0xd8	-0.0804569
146	0xdb	-0.074422635
147	0xff	-0.0020114225
148	0x1e	0.060342677
149	0xc8	-0.112639666
150	0xef	-0.034194183
151	0xf2	-0.028159916
152	0xe8	-0.04827414
153	0xcd	-0.10258255
154	0x24	0.07241121
155	0x1f	0.0623541
156	0x2b	0.08649117
157	0x30	0.09654828
158	0xf1	-0.030171338
159	0xff	-0.0020114225
160	0xe7	-0.050285563
161	0xb5	-0.15085669
162	0x30	0.09654828
163	0x1b	0.054308407
164	0xfa	-0.012068535
165	0xdc	-0.07241121
166	0xc6	-0.11666251
167	0xea	-0.044251297
168	0x3c	0.120685354
169	0x09	0.018102802
170	0x03	0.0060342676
171	0x07	0.014079958
172	0x14	0.04022845
173	0xf6	-0.020114224
174	0xf7	-0.018102802
175	0x0e	0.028159916
176	0xf4	-0.02413707
177	0xd7	-0.08246832
178	0x3c	0.120685354
179	0x0c	0.02413707
180	0x17	0.04626272
181	0x08	0.01609138
182	0x01	0.0020114225
183	0x09	0.018102802
184	0xe9	-0.04626272
185	0x14	0.04022845
186	0xf6	-0.020114224
187	0x17	0.04626272
188	0xed	-0.038217027
189	0x21	0.06637695
190	0xe4	-0.056319833
191	0xe7	-0.050285563
192	0xf4	-0.02413707
193	0xde	-0.068388365
194	0xff	-0.0020114225
195	0xfb	-0.010057112
196	0x10	0.03218276
197	0x08	0.01609138
198	0x05	0.010057112
199	0x17	0.04626272
200	0xe9	-0.04626272
201	0x1b	0.054308407
202	0x0e	0.028159916
203	0xe7	-0.050285563
204	0x25	0.074422635
205	0xda	-0.07643405
206	0x07	0.014079958
207	0xf0	-0.03218276
208	0x17	0.04626272
209	0xf8	-0.01609138
210	0x05	0.010057112
211	0x1b	0.054308407
212	0x0e	0.028159916
213	0x01	0.0020114225
214	0xdc	-0.07241121
215	0xe6	-0.052296985
216	0xe3	-0.058331255
217	0x13	0.038217027
218	0xe4	-0.056319833
219	0x02	0.004022845
220	0xe0	-0.06436552
221	0x02	0.004022845
222	0x19	0.050285563
223	0xe9	-0.04626272
224	0xe5	-0.054308407
225	0xe9	-0.04626272
226	0xed	-0.038217027
227	0xf3	-0.026148492
228	0xdf	-0.06637695
229	0xe5	-0.054308407
230	0xd2	-0.09252544
231	0x0e	0.028159916
232	0xea	-0.044251297
233	0x2a	0.08447975
234	0xe9	-0.04626272
235	0xfe	-0.004022845
236	0x07	0.014079958
237	0xfb	-0.010057112
238	0xfe	-0.004022845
239	0x2a	0.08447975
240	0x18	0.04827414
241	0xe8	-0.04827414
242	0x09	0.018102802
243	0x15	0.042239875
244	0x03	0.0060342676
245	0x06	0.012068535
246	0x26	0.07643405
247	0xfa	-0.012068535
248	0x1b	0.054308407
249	0xf7	-0.018102802
250	0x1e	0.060342677
251	0x08	0.01609138
252	0x04	0.00804569
253	0x1b	0.054308407
254	0xe1	-0.0623541
255	0x10	0.03218276

conv_1d_time_stacked/conv1d_4/conv1d_bias f4 [64]
0	0x3c84950e	0.016184356
1	0x3ea0076e	0.31255668
2	0xbdff61b0	-0.12469804
3	0x3ee350ad	0.44397488
4	0x3f6b03bc	0.91802573
5	0x3d602798	0.05472526
6	0x3f81e30e	1.0147417
7	0x3f23ba9c	0.6395662
8	0x3fe42cd6	1.7826183
9	0x3f48a773	0.7838051
10	0x3fb9bd11	1.4510823
11	0x3f809e84	1.0048375
12	0xbdf73a68	-0.12071687
13	0x3e7b6111	0.24548747
14	0x3f40b1e5	0.75271446
15	0xbeca1a65	-0.39473262
16	0x3ec22f07	0.37926504
17	0x3e032e78	0.12810695
18	0xbaeabf00	-0.0017909706
19	0xbf04afe5	-0.51830894
20	0x3f5f6534	0.872638
21	0x3f9407db	1.1564897
22	0x3f352f3e	0.7077521
23	0x3f7baa08	0.9830632
24	0x3f1fc737	0.6241335
25	0x3f57a180	0.84230804
26	0x3efb177a	0.4904135
27	0x3e92362e	0.2855696
28	0x3d8b66be	0.06806706
29	0x3f7750a3	0.96607417
30	0xbdbbaf35	-0.091642775
31	0x3b8827a4	0.004155116
32	0x3f1372f2	0.5759727
33	0xbe2eb4c0	-0.17061138
34	0x3fa778e2	1.3083766
35	0x3e3b4e1a	0.18291512
36	0xbe939d7a	-0.28831083
37	0x3e783bf2	0.24241617
38	0x3e96f6f6	0.2948529
39	0x3f6b7c8d	0.91986924
40	0x3f5c8da3	0.8615362
41	0x3e98c781	0.2983971
42	0x3f65b37c	0.89726996
43	0x3ffa32b3	1.9546722
44	0x3ea09f15	0.3137137
45	0xbfa59a2a	-1.2937672
46	0xbf43dbed	-0.76507455
47	0x3f5f63cb	0.87261647
48	0x3d043a04	0.03228189
49	0x3fbf7fd0	1.496088
50	0x3ec3fc3a	0.3827837
51	0x3f83502a	1.0258839
52	0x3f76b9b0	0.96377087
53	0x3fb08f6e	1.3793771
54	0x3fb2361e	1.3922765
55	0x3e995301	0.2994614
56	0x3f62655c	0.8843591
57	0x3f64db6a	0.893973
58	0x3f04a138	0.518085
59	0xbf7dc15f	-0.99123186
60	0x3f914210	1.1348286
61	0x3f78beda	0.97166216
62	0x3f8a81e4	1.082089
63	0xbde564dc	-0.11200878

conv_1d_time_stacked/conv1d_5/conv1d/ExpandDims_1 i1 [128, 1, 3, 64] scale=0.0023440067 zero_point=0
0	0xfc	-0.009376027
1	0x13	0.04453613
2	0xf7	-0.02109606
3	0x18	0.05625616
4	0xf1	-0.035160102
5	0x23	0.082040235
6	0x1c	0.06563219
7	0xeb	-0.04922414
8	0x1d	0.06797619
9	0xf4	-0.02812808
10	0x13	0.04453613
11	0xea	-0.051568147
12	0xfb	-0.011720033
13	0x1f	0.07266421
14	0xf7	-0.02109606
15	0xf1	-0.035160102
16	0xfd	-0.00703202
17	0xff	-0.0023440067
18	0x07	0.016408047
19	0xff	-0.0023440067
20	0xf2	-0.032816093
21	0xef	-0.03984811
22	0xe7	-0.058600165
23	0x03	0.00703202
24	0x0e	0.032816093
25	0xe3	-0.06797619
26	0xd6	-0.09844828
27	0x08	0.018752053
28	0x15	0.04922414
29	0xe2	-0.070320204
30	0x0f	0.035160102
31	0xff	-0.0023440067
32	0x0b	0.025784073
33	0xfa	-0.01406404
34	0xfb	-0.011720033
35	0x19	0.058600165
36	0xce	-0.11720033
37	0xf3	-0.030472087
38	0x01	0.0023440067
39	0xe2	-0.070320204
40	0xf4	-0.02812808
41	0xf2	-0.032816093
42	0x18	0.05625616
43	0x1c	0.06563219
44	0x19	0.058600165
45	0x04	0.009376027
46	0x1e	0.070320204
47	0x1a	0.060944173
48	0x0d	0.030472087
49	0x05	0.011720033
50	0xf2	-0.032816093
51	0x0d	0.030472087
52	0xfb	-0.011720033
53	0x1e	0.070320204
54	0xf7	-0.02109606
55	0x20	0.07500821
56	0xd7	-0.09610427
57	0x0d	0.030472087
58	0xff	-0.0023440067
59	0xeb	-0.04922414
60	0x08	0.018752053
61	0xdf	-0.07735222
62	0xce	-0.11720033
63	0xec	-0.046880133
64	0xf9	-0.016408047
65	0x33	0.11954434
66	0xfa	-0.01406404
67	0x0a	0.023440067
68	0x25	0.086728245
69	0x0e	0.032816093
70	0x08	0.018752053
71	0x1f	0.07266421
72	0xf4	-0.02812808
73	0xe8	-0.05625616
74	0xe1	-0.07266421
75	0x14	0.046880133
76	0xef	-0.03984811
77	0x22	0.07969622
78	0x15	0.04922414
79	0x29	0.09610427
80	0xfe	-0.0046880133
81	0xe8	-0.05625616
82	0xf5	-0.025784073
83	0xeb	-0.04922414
84	0xf4	-0.02812808
85	0x0b	0.025784073
86	0xda	-0.08907226
87	0x16	0.051568147
88	0x0f	0.035160102
89	0x24	0.08438424
90	0xe2	-0.070320204
91	0x06	0.01406404
92	0xef	-0.03984811
93	0x2b	0.10079229
94	0xf0	-0.037504107
95	0x17	0.053912155
96	0x0e	0.032816093
97	0x11	0.03984811
98	0xfc	-0.009376027
99	0x24	0.08438424
100	0xf6	-0.023440067
101	0xde	-0.07969622
102	0xe6	-0.060944173
103	0x0c	0.02812808
104	0x19	0.058600165
105	0x26	0.08907226
106	0x20	0.07500821
107	0x1c	0.06563219
108	0x05	0.011720033
109	0xec	-0.046880133
110	0x0f	0.035160102
111	0x0e	0.032816093
112	0xf5	-0.025784073
113	0x1f	0.07266421
114	0xec	-0.046880133
115	0x17	0.053912155
116	0xf0	-0.037504107
117	0xf9	-0.016408047
118	0xe0	-0.07500821
119	0x19	0.058600165
120	0xfc	-0.009376027
121	0xdb	-0.086728245
122	0x07	0.016408047
123	0xef	-0.03984811
124	0x0c	0.02812808
125	0xe6	-0.060944173
126	0x00	0.0
127	0xc9	-0.12892036
128	0xd8	-0.09376027
129	0x40	0.15001643
130	0xe6	-0.060944173
131	0x2f	0.110168315
132	0x01	0.0023440067
133	0xf5	-0.025784073
134	0xee	-0.04219212
135	0x14	0.046880133
136	0xe8	-0.05625616
137	0xdf	-0.07735222
138	0xd9	-0.09141626
139	0x18	0.05625616
140	0xe7	-0.058600165
141	0x29	0.09610427
142	0x0b	0.025784073
143	0x23	0.082040235
144	0x05	0.011720033
145	0xdd	-0.082040235
146	0xfb	-0.011720033
147	0x04	0.009376027
148	0xec	-0.046880133
149	0x0b	0.025784073
150	0xef	-0.03984811
151	0xee	-0.04219212
152	0x12	0.04219212
153	0x0e	0.032816093
154	0xde	-0.07969622
155	0x15	0.04922414
156	0xf8	-0.018752053
157	0x19	0.058600165
158	0xeb	-0.04922414
159	0x20	0.07500821
160	0x1d	0.06797619
161	0x14	0.046880133
162	0x08	0.018752053
163	0xf2	-0.032816093
164	0xe4	-0.06563219
165	0x05	0.011720033
166	0xde	-0.07969622
167	0xfa	-0.01406404
168	0x01	0.0023440067
169	0x13	0.04453613
170	0xfa	-0.01406404
171	0xde	-0.07969622
172	0xfb	-0.011720033
173	0x06	0.01406404
174	0x02	0.0046880133
175	0x07	0.016408047
176	0xe5	-0.06328818
177	0x03	0.00703202
178	0x26	0.08907226
179	0x26	0.08907226
180	0xdb	-0.086728245
181	0xf5	-0.025784073
182	0xc7	-0.13360839
183	0x08	0.018752053
184	0x18	0.05625616
185	0xed	-0.04453613
186	0x1c	0.06563219
187	0xda	-0.08907226
188	0xec	-0.046880133
189	0x04	0.009376027
190	0x04	0.009376027
191	0xe6	-0.060944173
192	0x06	0.01406404
193	0x0b	0.025784073
194	0x04	0.009376027
195	0x1a	0.060944173
196	0xe8	-0.05625616
197	0x1a	0.060944173
198	0xe0	-0.07500821
199	0xf0	-0.037504107
200	0x0b	0.025784073
201	0xf2	-0.032816093
202	0xf2	-0.032816093
203	0xf8	-0.018752053
204	0x11	0.03984811
205	0x16	0.051568147
206	0xef	-0.03984811
207	0xff	-0.0023440067
208	0x0c	0.02812808
209	0x10	0.037504107
210	0x28	0.09376027
211	0xf2	-0.032816093
212	0x1e	0.070320204
213	0x0c	0.02812808
214	0x0e	0.032816093
215	0x1e	0.070320204
216	0xd6	-0.09844828
217	0x20	0.07500821
218	0xff	-0.0023440067
219	0x0c	0.02812808
220	0x13	0.04453613
221	0xf2	-0.032816093
222	0xef	-0.03984811
223	0x02	0.0046880133
224	0xff	-0.0023440067
225	0x03	0.00703202
226	0xf1	-0.035160102
227	0x02	0.0046880133
228	0xee	-0.04219212
229	0xf6	-0.023440067
230	0x0b	0.025784073
231	0x02	0.0046880133
232	0x10	0.037504107
233	0xe6	-0.060944173
234	0x1a	0.060944173
235	0xe5	-0.06328818
236	0xf2	-0.032816093
237	0x25	0.086728245
238	0xeb	-0.04922414
239	0xfa	-0.01406404
240	0xec	-0.046880133
241	0x12	0.04219212
242	0x11	0.03984811
243	0xf5	-0.025784073
244	0x0e	0.032816093
245	0x07	0.016408047
246	0x1f	0.07266421
247	0xe2	-0.070320204
248	0xf6	-0.023440067
249	0x15	0.04922414
250	0x0c	0.02812808
251	0xff	-0.0023440067
252	0x26	0.08907226
253	0xfd	-0.00703202
254	0x23	0.082040235
255	0x24	0.08438424

conv_1d_time_stacked/conv1d_5/conv1d_bias f4 [128]
0	0x3bf34eac	0.00742515
1	0xbedb6e64	-0.4285766
2	0x3e014f27	0.1262785
3	0x3e95e49a	0.29275972
4	0x3fa1c3e7	1.263791
5	0xbdb5df3a	-0.08880468
6	0xbe9b1737	-0.3029115
7	0x3f101cb7	0.56293815
8	0xbc6f8980	-0.014620185
9	0xbf0a0c32	-0.5392486
10	0x3b9c1e80	0.004764378
11	0x3f01fb0b	0.50773686
12	0xbf23983d	-0.6390417
13	0x3f51ae3e	0.819065
14	0xbe9e322b	-0.3089765
15	0x3f51ad0e	0.81904685
16	0x3ea366c4	0.3191434
17	0xbcaffe06	-0.021483433
18	0xbede7c31	-0.43454126
19	0x3fa3f36e	1.2808664
20	0x3e19eca5	0.15031679
21	0x3f283efe	0.6572112
22	0x3f24bcc0	0.6435051
23	0xbe9b2632	-0.30302578
24	0x3f41e0fd	0.7573393
25	0x3f0a5abe	0.5404471
26	0xbd4373e6	-0.04771795
27	0x3eaa2780	0.3323326
28	0x3e0c503a	0.13702479
29	0xbee90b96	-0.45516652
30	0xbe750a34	-0.23929673
31	0x3eea2828	0.45733762
32	0xbe392762	-0.1808143
33	0x3e6d9ae0	0.23203611
34	0x3f2a2158	0.6645713
35	0x3ec543e4	0.3852836
36	0x3f36be3a	0.7138401
37	0x3e8d3a2e	0.2758345
38	0x3c9337c4	0.017970927
39	0xbdd641d5	-0.10461775
40	0xbf25757b	-0.64632386
41	0x3f1aaad5	0.6041692
42	0xbea526ac	-0.32256067
43	0x3f5caa1a	0.86197054
44	0x3f08d18f	0.5344476
45	0x3e8ffd45	0.28122917
46	0x3ea02f9d	0.31286326
47	0xbede8232	-0.43458706
48	0x3d27ff9e	0.04101526
49	0xbea537fd	-0.32269278
50	0xbe50acb6	-0.20378384
51	0x3e829d43	0.25510606
52	0x3f3ecc3c	0.74530387
53	0xbee4de1a	-0.447007
54	0xbedb7b74	-0.42867625
55	0x3fa5be14	1.2948632
56	0x3e764b02	0.2405205
57	0x3f0003ef	0.50006
58	0xbe2182b6	-0.15772519
59	0xbd1f905a	-0.038956024
60	0x3f9fced4	1.2484994
61	0x3e6f3596	0.23360285
62	0xbeda369e	-0.42619795
63	0x3edffefd	0.43749228
64	0x3f7aa52d	0.9790829
65	0xbe8edc82	-0.2790261
66	0x3d947b4e	0.07250081
67	0x3d9930f0	0.07480037
68	0xbf1baed5	-0.6081365
69	0xbf905822	-1.1276896
70	0x3e3bb37a	0.18330184
71	0xbe984ecc	-0.29747617
72	0xbdb68b12	-0.08913244
73	0x3f05f030	0.5231962
74	0x3cd8a431	0.02644548
75	0xbf5c0775	-0.8594888
76	0x3d546e84	0.05186321
77	0xbf2637a5	-0.64928657
78	0x3e8854fc	0.26627338
79	0xbe2485d9	-0.16066684
80	0x3ea012d2	0.3126436
81	0xbd827cae	-0.06371437
82	0x3f292767	0.6607575
83	0x3f07835f	0.5293483
84	0x3f5fb3e2	0.87383854
85	0x3f37c8e3	0.71790904
86	0x3fa820be	1.3134992
87	0x3e2bc271	0.16773392
88	0xbf6e7324	-0.9314444
89	0x3d39d782	0.04537154
90	0x3e88d762	0.26726824
91	0xbea97f66	-0.3310501
92	0xbea9f23c	-0.33192623
93	0xbedcc404	-0.43118298
94	0x3f214768	0.6299958
95	0x3ea79042	0.32727247
96	0x3e9f9925	0.31171528
97	0x3e9b0756	0.30279034
98	0xbe484b22	-0.19559911
99	0x3f30d059	0.69067913
100	0xbed7e6ea	-0.4216836
101	0xbdda21b4	-0.106509596
102	0xbeb3c87e	-0.351139
103	0xbdbcb48c	-0.09214124
104	0x3f1ea1b8	0.61965513
105	0x3f4c02ae	0.7969159
106	0xbf0261c2	-0.50930417
107	0xbd8862e1	-0.06659485
108	0x3f4544c6	0.77058065
109	0x3ecb0a2d	0.396562
110	0xbefeefaa	-0.49792224
111	0xbe17f88c	-0.14840907
112	0xbce82994	-0.028340138
113	0xbf13d5c2	-0.57748044
114	0xbf208570	-0.6270361
115	0xbeb540ed	-0.35401097
116	0x3e604351	0.21900679
117	0x3f35dcad	0.7103985
118	0x3f0213ce	0.5081147
119	0xbe2c1684	-0.16805464
120	0x3f699d20	0.9125538
121	0xbe5e708c	-0.2172262
122	0x3eac7c04	0.33688366
123	0xbf2567f0	-0.6461172
124	0xbf5170c2	-0.8181268
125	0x3f145220	0.5793781
126	0xbe17b6bd	-0.14815803
127	0x3f92256a	1.1417668

conv_1d_time_stacked/conv1d_6/conv1d/ExpandDims_1 i1 [128, 1, 3, 128] scale=0.0013067975 zero_point=0
0	0xef	-0.022215558
1	0xfe	-0.002613595
2	0x1a	0.033976734
3	0x01	0.0013067975
4	0x29	0.053578697
5	0xf9	-0.009147583
6	0x07	0.009147583
7	0xfb	-0.0065339874
8	0x1e	0.039203923
9	0xff	-0.0013067975
10	0xf1	-0.019601962
11	0x2d	0.058805887
12	0x22	0.044431116
13	0x01	0.0013067975
14	0x00	0.0
15	0xfa	-0.007840785
16	0xf1	-0.019601962
17	0x0b	0.014374772
18	0x13	0.024829153
19	0xe2	-0.039203923
20	0xf7	-0.011761177
21	0x07	0.009147583
22	0x14	0.02613595
23	0xeb	-0.027442748
24	0x08	0.01045438
25	0xff	-0.0013067975
26	0xfb	-0.0065339874
27	0x0b	0.014374772
28	0x14	0.02613595
29	0x0a	0.013067975
30	0x0a	0.013067975
31	0xfa	-0.007840785
32	0xf8	-0.01045438
33	0xfc	-0.00522719
34	0xf9	-0.009147583
35	0xe2	-0.039203923
36	0xfd	-0.0039203926
37	0xf5	-0.014374772
38	0x09	0.011761177
39	0xf0	-0.02090876
40	0xf2	-0.018295165
41	0xf1	-0.019601962
42	0xe1	-0.04051072
43	0x0d	0.016988367
44	0x0c	0.01568157
45	0xf5	-0.014374772
46	0xee	-0.023522355
47	0x1f	0.04051072
48	0xea	-0.028749544
49	0x0f	0.019601962
50	0x1a	0.033976734
51	0xf1	-0.019601962
52	0xfb	-0.0065339874
53	0x28	0.0522719
54	0x05	0.0065339874
55	0xf0	-0.02090876
56	0xfa	-0.007840785
57	0x1c	0.03659033
58	0x08	0.01045438
59	0x19	0.03266994
60	0x24	0.04704471
61	0x3a	0.07579426
62	0x0e	0.018295165
63	0xf8	-0.01045438
64	0xfa	-0.007840785
65	0xff	-0.0013067975
66	0xfd	-0.0039203926
67	0x13	0.024829153
68	0x0e	0.018295165
69	0x0f	0.019601962
70	0x15	0.027442748
71	0xf3	-0.016988367
72	0xfc	-0.00522719
73	0xf4	-0.01568157
74	0xf7	-0.011761177
75	0xef	-0.022215558
76	0xfb	-0.0065339874
77	0x1b	0.035283532
78	0x08	0.01045438
79	0x09	0.011761177
80	0x14	0.02613595
81	0x0a	0.013067975
82	0x06	0.007840785
83	0x11	0.022215558
84	0x07	0.009147583
85	0x02	0.002613595
86	0xee	-0.023522355
87	0xf6	-0.013067975
88	0x20	0.04181752
89	0x0f	0.019601962
90	0x14	0.02613595
91	0x2c	0.05749909
92	0x05	0.0065339874
93	0x03	0.0039203926
94	0x01	0.0013067975
95	0xf5	-0.014374772
96	0xf3	-0.016988367
97	0xe6	-0.033976734
98	0xe1	-0.04051072
99	0x22	0.044431116
100	0x10	0.02090876
101	0xe8	-0.03136314
102	0xfa	-0.007840785
103	0x03	0.0039203926
104	0xf5	-0.014374772
105	0x13	0.024829153
106	0x06	0.007840785
107	0x15	0.027442748
108	0xff	-0.0013067975
109	0xd7	-0.053578697
110	0xff	-0.0013067975
111	0xf6	-0.013067975
112	0xfa	-0.007840785
113	0xf9	-0.009147583
114	0xe9	-0.030056342
115	0x06	0.007840785
116	0x15	0.027442748
117	0xf1	-0.019601962
118	0x2a	0.054885495
119	0x0d	0.016988367
120	0xe8	-0.03136314
121	0x06	0.007840785
122	0x13	0.024829153
123	0x08	0.01045438
124	0x2c	0.05749909
125	0xf0	-0.02090876
126	0xf5	-0.014374772
127	0xe9	-0.030056342
128	0x05	0.0065339874
129	0x00	0.0
130	0xfd	-0.0039203926
131	0x10	0.02090876
132	0x1d	0.03789713
133	0x02	0.002613595
134	0xfc	-0.00522719
135	0xf2	-0.018295165
136	0x05	0.0065339874
137	0xfe	-0.002613595
138	0xf3	-0.016988367
139	0x18	0.03136314
140	0xfc	-0.00522719
141	0xff	-0.0013067975
142	0xfb	-0.0065339874
143	0xfb	-0.0065339874
144	0xed	-0.024829153
145	0xf8	-0.01045438
146	0xf5	-0.014374772
147	0xef	-0.022215558
148	0x0c	0.01568157
149	0x11	0.022215558
150	0xf9	-0.009147583
151	0xf6	-0.013067975
152	0xf7	-0.011761177
153	0xfc	-0.00522719
154	0xee	-0.023522355
155	0x12	0.023522355
156	0xff	-0.0013067975
157	0x02	0.002613595
158	0xf9	-0.009147583
159	0xf3	-0.016988367
160	0xeb	-0.027442748
161	0xf2	-0.018295165
162	0x05	0.0065339874
163	0xf4	-0.01568157
164	0x03	0.0039203926
165	0x12	0.023522355
166	0x0a	0.013067975
167	0xf4	-0.01568157
168	0x01	0.0013067975
169	0xee	-0.023522355
170	0xec	-0.02613595
171	0x08	0.01045438
172	0xff	-0.0013067975
173	0xf7	-0.011761177
174	0x08	0.01045438
175	0x0d	0.016988367
176	0xfe	-0.002613595
177	0x08	0.01045438
178	0x09	0.011761177
179	0xea	-0.028749544
180	0xf2	-0.018295165
181	0x19	0.03266994
182	0xfa	-0.007840785
183	0xfa	-0.007840785
184	0xed	-0.024829153
185	0xff	-0.0013067975
186	0x0d	0.016988367
187	0x02	0.002613595
188	0x0a	0.013067975
189	0x17	0.030056342
190	0xf8	-0.01045438
191	0x0d	0.016988367
192	0xf9	-0.009147583
193	0x04	0.00522719
194	0x0a	0.013067975
195	0x0a	0.013067975
196	0x0a	0.013067975
197	0xf3	-0.016988367
198	0x17	0.030056342
199	0xe5	-0.035283532
200	0x08	0.01045438
201	0x01	0.0013067975
202	0x0a	0.013067975
203	0x05	0.0065339874
204	0x03	0.0039203926
205	0x06	0.007840785
206	0x0b	0.014374772
207	0x14	0.02613595
208	0x16	0.028749544
209	0x19	0.03266994
210	0x0b	0.014374772
211	0x07	0.009147583
212	0xff	-0.0013067975
213	0x06	0.007840785
214	0x08	0.01045438
215	0xf3	-0.016988367
216	0x1e	0.039203923
217	0x06	0.007840785
218	0xfc	-0.00522719
219	0x21	0.043124318
220	0x18	0.03136314
221	0x04	0.00522719
222	0xfc	-0.00522719
223	0xec	-0.02613595
224	0xf6	-0.013067975
225	0x03	0.0039203926
226	0x02	0.002613595
227	0x00	0.0
228	0x0a	0.013067975
229	0xf7	-0.011761177
230	0x00	0.0
231	0x16	0.028749544
232	0xe7	-0.03266994
233	0x0f	0.019601962
234	0x04	0.00522719
235	0x00	0.0
236	0xf7	-0.011761177
237	0xee	-0.023522355
238	0x0a	0.013067975
239	0xf4	-0.01568157
240	0x13	0.024829153
241	0xfe	-0.002613595
242	0xf3	-0.016988367
243	0xfd	-0.0039203926
244	0x16	0.028749544
245	0x0c	0.01568157
246	0x04	0.00522719
247	0x13	0.024829153
248	0x05	0.0065339874
249	0x0e	0.018295165
250	0x06	0.007840785
251	0xfd	-0.0039203926
252	0x25	0.048351508
253	0xef	-0.022215558
254	0x01	0.0013067975
255	0xeb	-0.027442748

conv_1d_time_stacked/conv1d_6/conv1d_bias f4 [128]
0	0xbef65099	-0.48108366
1	0x3ece4f3a	0.4029482
2	0x3e787966	0.2426506
3	0x3f131c85	0.5746539
4	0x3ea08ed8	0.3135898
5	0x3f98d941	1.1941301
6	0x3eda1284	0.4259225
7	0x3f07e25d	0.5307978
8	0x3f1c8ffe	0.61157215
9	0x3fcae5e5	1.5851408
10	0x3f547ce2	0.83003056
11	0x3f1cdd34	0.6127503
12	0x3f98aa53	1.1926979
13	0x3eaaa3db	0.33328137
14	0x3fa6d2e9	1.3033115
15	0x3f85135e	1.0396535
16	0x3f0d7617	0.55258316
17	0x3d9557e2	0.07292153
18	0x3f7da566	0.99080503
19	0x3f8c8f9d	1.0981327
20	0x3f8ce0ac	1.1006064
21	0x3eb4ab3a	0.35286885
22	0xbf2b0278	-0.6680064
23	0x3f64419c	0.8916261
24	0xbf799512	-0.9749309
25	0x3ebb7964	0.3661605
26	0x3d0452a6	0.032305382
27	0x3f0f56fa	0.5599209
28	0xbefdf49c	-0.49600685
29	0x3f79089e	0.97278774
30	0x3eec5e67	0.46165773
31	0x3f4d13e4	0.80108476
32	0x3f780309	0.9687963
33	0x3ae64980	0.0017569512
34	0x3f3add20	0.7299366
35	0x3fa1dc8f	1.2645434
36	0x3f9ea370	1.2393627
37	0x3f482f8c	0.7819755
38	0x3e83ccf1	0.25742295
39	0x3fa9ce81	1.3266145
40	0x3fb16d76	1.386153
41	0x3f5fa620	0.8736286
42	0x3fcd09e1	1.601864
43	0xbe0e5600	-0.13899994
44	0x3f7400cb	0.9531371
45	0x3fa7cc2c	1.3109183
46	0xbe7e6015	-0.2484134
47	0x3bdb0340	0.006683737
48	0x3d28e4bc	0.041233763
49	0xbfa17ce8	-1.2616243
50	0x3faedd5a	1.3661301
51	0xbf319d73	-0.69380873
52	0x3eb0a711	0.34502462
53	0x3f355164	0.7082732
54	0xbdc0f3d4	-0.094215065
55	0x3f148a34	0.5802338
56	0xbbbffde6	-0.0058591245
57	0x3efcd902	0.49384314
58	0x3f6f8341	0.9355965
59	0x3fa4f4e7	1.2887238
60	0x3f098e6d	0.5373295
61	0xbe7eb229	-0.2487265
62	0xbed93b97	-0.42428276
63	0x3c8e1b00	0.017346859
64	0x3f2dec2f	0.6793851
65	0x3fa01499	1.2506286
66	0x3ed40db8	0.41416717
67	0x3ca274d0	0.019831091
68	0x3f1be153	0.6089069
69	0x3f49d996	0.78847635
70	0x3e888c1b	0.26669392
71	0x3f60f162	0.8786832
72	0x3f9a2487	1.2042397
73	0x3f6f40f8	0.9345851
74	0x3f487623	0.7830526
75	0x3f2a1d61	0.6645108
76	0xbd67388c	-0.05645041
77	0x3f32cf80	0.6984787
78	0xbf4fe089	-0.8120199
79	0xbc12e670	-0.008966073
80	0x3f88bde7	1.0682954
81	0x3f7f6d68	0.99776316
82	0x3fb5578b	1.4167341
83	0x3f0e76d8	0.5565009
84	0x3eb53ce7	0.35398027
85	0x3f0ce4a9	0.5503641
86	0x3e54ad7a	0.20769301
87	0x3f7e7e6f	0.9941167
88	0x3f5eb6dc	0.8699777
89	0xbe7ecb70	-0.24882293
90	0x3f6caf20	0.9245472
91	0x3d521998	0.05129394
92	0x3f0c566a	0.5481936
93	0x3f865203	1.0493778
94	0x3fc9c904	1.576447
95	0x3e959328	0.29213834
96	0x3c8aa200	0.01692295
97	0x3dc0fba7	0.09422999
98	0x3f8d1994	1.1023431
99	0x3f3effe4	0.7460921
100	0x3fbd7a29	1.4802905
101	0x3ea124c6	0.31473368
102	0x3dd6e6d4	0.10493246
103	0xbdec5ab0	-0.11540735
104	0x3f1157ac	0.567744
105	0x3f8bea2a	1.0930836
106	0x3f54a82b	0.83069104
107	0x3f9fc620	1.2482338
108	0x3fefcf77	1.8735188
109	0x3ef735f6	0.48283356
110	0x3eb22543	0.34794053
111	0xbe37deee	-0.17956135
112	0x3fd76968	1.6829042
113	0x3f7412ca	0.9534117
114	0x3fad673a	1.3547127
115	0xbe1556fd	-0.14583965
116	0xbe303950	-0.17209363
117	0xbe4a931c	-0.1978268
118	0x3f2c02fe	0.67192066
119	0xbf7464db	-0.95466393
120	0xbf5b29c7	-0.8561062
121	0x3fdc1481	1.7193757
122	0x3fa091e2	1.254452
123	0x3f220972	0.6329566
124	0x3f7292bf	0.94755167
125	0x3ee0a27c	0.43873966
126	0x3fb4141f	1.406864
127	0x3f2c0ad6	0.67204034
