xain_voice_recognizer/assets/digitsnet.tflite (tflite, 426968 bytes, 20 tensors)

conv_1d_time_stacked/conv1d/conv1d/ExpandDims_1 i1 [16, 1, 1, 65] scale=0.0015198143 zero_point=0
0	0x19	0.037995357
1	0xf3	-0.019757586
2	0x57	0.13222384
3	0x40	0.09726811
4	0x20	0.048634056
5	0x9c	-0.15198143
6	0xa2	-0.14286254
7	0xc4	-0.091188855
8	0x13	0.02887647
9	0x05	0.007599071
10	0xe2	-0.045594428
11	0x36	0.08206997
12	0x26	0.05775294
13	0xd1	-0.07143127
14	0xf3	-0.019757586
15	0xf8	-0.012158514
16	0xec	-0.030396285
17	0x33	0.07751053
18	0x2a	0.0638322
19	0xed	-0.02887647
20	0x09	0.013678328
21	0x35	0.08055016
22	0xf9	-0.0106387
23	0x2b	0.065352015
24	0xdc	-0.054713313
25	0x3c	0.091188855
26	0x29	0.062312383
27	0x09	0.013678328
28	0xf9	-0.0106387
29	0xdb	-0.056233127
30	0x32	0.075990714
31	0x0d	0.019757586
32	0xd3	-0.06839164
33	0x2a	0.0638322
34	0xf3	-0.019757586
35	0x09	0.013678328
36	0xe7	-0.037995357
37	0x0d	0.019757586
38	0x05	0.007599071
39	0x24	0.054713313
40	0x0a	0.015198142
41	0xec	-0.030396285
42	0xed	-0.02887647
43	0xef	-0.025836842
44	0x19	0.037995357
45	0xdf	-0.05015387
46	0xde	-0.051673684
47	0x1e	0.045594428
48	0xe2	-0.045594428
49	0x26	0.05775294
50	0xdf	-0.05015387
51	0xe4	-0.0425548
52	0x0a	0.015198142
53	0x32	0.075990714
54	0xfd	-0.004559443
55	0x18	0.036475543
56	0xdc	-0.054713313
57	0xef	-0.025836842
58	0x25	0.056233127
59	0xee	-0.027356656
60	0x16	0.033435915
61	0x35	0.08055016
62	0xc6	-0.08814923
63	0xca	-0.08206997
64	0x07	0.0106387
65	0x0c	0.018237771
66	0x14	0.030396285
67	0xea	-0.033435915
68	0x0c	0.018237771
69	0x16	0.033435915
70	0xe0	-0.048634056
71	0x10	0.024317028
72	0xf2	-0.0212774
73	0xfe	-0.0030396285
74	0x04	0.006079257
75	0xf4	-0.018237771
76	0x0d	0.019757586
77	0x17	0.03495573
78	0xf0	-0.024317028
79	0xf9	-0.0106387
80	0x0c	0.018237771
81	0xe2	-0.045594428
82	0xf4	-0.018237771
83	0xff	-0.0015198143
84	0xe8	-0.036475543
85	0xee	-0.027356656
86	0x0f	0.022797214
87	0xe6	-0.03951517
88	0xe9	-0.03495573
89	0xf9	-0.0106387
90	0xe4	-0.0425548
91	0x08	0.012158514
92	0xfb	-0.007599071
93	0x0f	0.022797214
94	0x0f	0.022797214
95	0x0d	0.019757586
96	0x03	0.004559443
97	0xf3	-0.019757586
98	0x19	0.037995357
99	0x00	0.0
100	0xfa	-0.009118886
101	0x0e	0.0212774
102	0x10	0.024317028
103	0xe6	-0.03951517
104	0x11	0.025836842
105	0xf3	-0.019757586
106	0xfa	-0.009118886
107	0xe2	-0.045594428
108	0x0e	0.0212774
109	0x04	0.006079257
110	0xfd	-0.004559443
111	0x0c	0.018237771
112	0xf6	-0.015198142
113	0xf0	-0.024317028
114	0xf4	-0.018237771
115	0x01	0.0015198143
116	0xec	-0.030396285
117	0xe5	-0.041034985
118	0x02	0.0030396285
119	0x04	0.006079257
120	0xfc	-0.006079257
121	0x09	0.013678328
122	0xe5	-0.041034985
123	0xed	-0.02887647
124	0x06	0.009118886
125	0xe8	-0.036475543
126	0x0d	0.019757586
127	0x07	0.0106387
128	0xf9	-0.0106387
129	0x1b	0.041034985
130	0xf0	-0.024317028
131	0x08	0.012158514
132	0xfe	-0.0030396285
133	0x28	0.06079257
134	0x05	0.007599071
135	0xfb	-0.007599071
136	0x14	0.030396285
137	0x09	0.013678328
138	0xf3	-0.019757586
139	0x23	0.0531935
140	0x0f	0.022797214
141	0xea	-0.033435915
142	0xfa	-0.009118886
143	0xfd	-0.004559443
144	0xe3	-0.044074614
145	0x10	0.024317028
146	0xfb	-0.007599071
147	0xe6	-0.03951517
148	0xe2	-0.045594428
149	0xeb	-0.0319161
150	0xe9	-0.03495573
151	0x17	0.03495573
152	0xe7	-0.037995357
153	0xee	-0.027356656
154	0x09	0.013678328
155	0xe0	-0.048634056
156	0x1e	0.045594428
157	0x19	0.037995357
158	0xf4	-0.018237771
159	0xe6	-0.03951517
160	0x1a	0.03951517
161	0x00	0.0
162	0xea	-0.033435915
163	0x00	0.0
164	0x18	0.036475543
165	0x0c	0.018237771
166	0x02	0.0030396285
167	0x21	0.05015387
168	0xe8	-0.036475543
169	0xe3	-0.044074614
170	0x19	0.037995357
171	0x11	0.025836842
172	0x12	0.027356656
173	0x07	0.0106387
174	0x23	0.0531935
175	0x07	0.0106387
176	0x02	0.0030396285
177	0x12	0.027356656
178	0xf8	-0.012158514
179	0x04	0.006079257
180	0xed	-0.02887647
181	0xe7	-0.037995357
182	0x12	0.027356656
183	0xf7	-0.013678328
184	0xf2	-0.0212774
185	0xf0	-0.024317028
186	0x11	0.025836842
187	0x14	0.030396285
188	0xd3	-0.06839164
189	0xd3	-0.06839164
190	0xf1	-0.022797214
191	0xe6	-0.03951517
192	0xd9	-0.059272755
193	0xd3	-0.06839164
194	0xda	-0.05775294
195	0xdb	-0.056233127
196	0xd6	-0.0638322
197	0xf3	-0.019757586
198	0x0f	0.022797214
199	0x1b	0.041034985
200	0x1c	0.0425548
201	0x1f	0.047114242
202	0xfe	-0.0030396285
203	0xf6	-0.015198142
204	0xe1	-0.047114242
205	0xe0	-0.048634056
206	0x07	0.0106387
207	0xe4	-0.0425548
208	0x18	0.036475543
209	0xf0	-0.024317028
210	0xea	-0.033435915
211	0xec	-0.030396285
212	0xf9	-0.0106387
213	0x02	0.0030396285
214	0xe5	-0.041034985
215	0x0d	0.019757586
216	0x0b	0.016717957
217	0x00	0.0
218	0xe4	-0.0425548
219	0xf4	-0.018237771
220	0x1b	0.041034985
221	0x03	0.004559443
222	0xfa	-0.009118886
223	0x1a	0.03951517
224	0x15	0.0319161
225	0xfc	-0.006079257
226	0x24	0.054713313
227	0x0c	0.018237771
228	0x00	0.0
229	0xfd	-0.004559443
230	0xf8	-0.012158514
231	0x0f	0.022797214
232	0xf3	-0.019757586
233	0xf1	-0.022797214
234	0x20	0.048634056
235	0xfb	-0.007599071
236	0xf7	-0.013678328
237	0x08	0.012158514
238	0x0a	0.015198142
239	0x1f	0.047114242
240	0x0e	0.0212774
241	0x12	0.027356656
242	0x1d	0.044074614
243	0x14	0.030396285
244	0xfa	-0.009118886
245	0x09	0.013678328
246	0x13	0.02887647
247	0xfb	-0.007599071
248	0x0f	0.022797214
249	0x16	0.033435915
250	0x1c	0.0425548
251	0xe3	-0.044074614
252	0x1e	0.045594428
253	0xf7	-0.013678328
254	0xf5	-0.016717957
255	0x0f	0.022797214

conv_1d_time_stacked/conv1d/conv1d_bias f4 [16]
0	0xbf8e35a4	-1.111012
1	0x3fa31386	1.2740333
2	0x3ec8cfb8	0.39220977
3	0xbe748c72	-0.238817
4	0xbf96d776	-1.1784503
5	0xbf70f1fc	-0.9411924
6	0x3f8e0cac	1.1097617
7	0x3ee17106	0.44031543
8	0xbfb39f3a	-1.4032967
9	0x3f826be9	1.0189182
10	0x3f525290	0.8215723
11	0x3f958ed0	1.1684208
12	0xbff1512c	-1.8852897
13	0xbfa65a27	-1.2996262
14	0x3fcd66c0	1.6046982
15	0xbfb9e24a	-1.4522183

conv_1d_time_stacked/conv1d_1/conv1d/ExpandDims_1 i1 [32, 1, 3, 16] scale=0.0052063665 zero_point=0
0	0x04	0.020825466
1	0x1a	0.13536553
2	0x20	0.16660373
3	0xe4	-0.14577827
4	0x00	0.0
5	0x12	0.093714595
6	0xfb	-0.026031833
7	0x11	0.08850823
8	0xee	-0.093714595
9	0xfe	-0.010412733
10	0x23	0.18222283
11	0x0d	0.067682765
12	0xee	-0.093714595
13	0xe3	-0.15098463
14	0x11	0.08850823
15	0xe3	-0.15098463
16	0x16	0.11454006
17	0x1a	0.13536553
18	0xfc	-0.020825466
19	0xe8	-0.12495279
20	0xea	-0.11454006
21	0x26	0.19784193
22	0x11	0.08850823
23	0xf9	-0.036444567
24	0xee	-0.093714595
25	0x10	0.083301865
26	0x1b	0.14057189
27	0x1a	0.13536553
28	0x0f	0.078095496
29	0xfc	-0.020825466
30	0x1e	0.15619099
31	0xee	-0.093714595
32	0x1e	0.15619099
33	0xee	-0.093714595
34	0x13	0.09892096
35	0xf4	-0.062476397
36	0xf0	-0.083301865
37	0xf4	-0.062476397
38	0xf3	-0.067682765
39	0xed	-0.09892096
40	0xfd	-0.015619099
41	0x03	0.015619099
42	0x18	0.12495279
43	0xf5	-0.05727003
44	0xfd	-0.015619099
45	0x16	0.11454006
46	0xf4	-0.062476397
47	0xf6	-0.052063666
48	0x17	0.11974643
49	0x13	0.09892096
50	0x0f	0.078095496
51	0x1b	0.14057189
52	0x3c	0.31238198
53	0xee	-0.093714595
54	0x3e	0.32279474
55	0x45	0.35923928
56	0x65	0.525843
57	0xc1	-0.32800108
58	0x4a	0.38527113
59	0x1a	0.13536553
60	0x79	0.6299704
61	0x0f	0.078095496
62	0xe8	-0.12495279
63	0x39	0.29676288
64	0xfe	-0.010412733
65	0x30	0.24990559
66	0x2a	0.21866739
67	0xfe	-0.010412733
68	0xff	-0.0052063665
69	0xd4	-0.22908013
70	0x1c	0.14577827
71	0xc2	-0.32279474
72	0xdd	-0.18222283
73	0x29	0.21346103
74	0x1e	0.15619099
75	0xfc	-0.020825466
76	0xfc	-0.020825466
77	0xb5	-0.39047748
78	0x09	0.046857297
79	0x22	0.17701647
80	0xf6	-0.052063666
81	0xcf	-0.25511196
82	0xf8	-0.041650932
83	0xc1	-0.32800108
84	0xba	-0.36444566
85	0xd8	-0.20825467
86	0x0b	0.05727003
87	0xc1	-0.32800108
88	0x13	0.09892096
89	0xe8	-0.12495279
90	0xdd	-0.18222283
91	0xb1	-0.41130295
92	0x48	0.37485838
93	0xe9	-0.11974643
94	0xc2	-0.32279474
95	0x3e	0.32279474
96	0xff	-0.0052063665
97	0xe1	-0.16139737
98	0xe4	-0.14577827
99	0xdd	-0.18222283
100	0xf1	-0.078095496
101	0xe2	-0.15619099
102	0xd6	-0.21866739
103	0x11	0.08850823
104	0x3b	0.30717564
105	0x00	0.0
106	0x18	0.12495279
107	0xd9	-0.20304829
108	0x2c	0.22908013
109	0xdb	-0.19263557
110	0xb9	-0.36965203
111	0xd1	-0.24469922
112	0xeb	-0.109333694
113	0xda	-0.19784193
114	0x19	0.13015917
115	0x11	0.08850823
116	0xe8	-0.12495279
117	0xd6	-0.21866739
118	0xdd	-0.18222283
119	0x1b	0.14057189
120	0x0f	0.078095496
121	0xea	-0.11454006
122	0x0f	0.078095496
123	0x04	0.020825466
124	0x11	0.08850823
125	0x27	0.20304829
126	0xba	-0.36444566
127	0xe3	-0.15098463
128	0xef	-0.08850823
129	0x23	0.18222283
130	0xf8	-0.041650932
131	0x1e	0.15619099
132	0xf0	-0.083301865
133	0xf6	-0.052063666
134	0xfd	-0.015619099
135	0xd9	-0.20304829
136	0xfb	-0.026031833
137	0xd9	-0.20304829
138	0xd8	-0.20825467
139	0x0c	0.062476397
140	0x12	0.093714595
141	0x2f	0.24469922
142	0x19	0.13015917
143	0xd4	-0.22908013
144	0xd5	-0.22387376
145	0xc5	-0.30717564
146	0x08	0.041650932
147	0xf0	-0.083301865
148	0xc7	-0.29676288
149	0xf6	-0.052063666
150	0x08	0.041650932
151	0x33	0.2655247
152	0xb4	-0.39568385
153	0xdb	-0.19263557
154	0x22	0.17701647
155	0xc1	-0.32800108
156	0x14	0.10412733
157	0xbd	-0.34882656
158	0x30	0.24990559
159	0xe8	-0.12495279
160	0x0d	0.067682765
161	0x1f	0.16139737
162	0x10	0.083301865
163	0x39	0.29676288
164	0xc2	-0.32279474
165	0x11	0.08850823
166	0xdd	-0.18222283
167	0x2a	0.21866739
168	0x05	0.026031833
169	0x3b	0.30717564
170	0x15	0.109333694
171	0x28	0.20825467
172	0x0c	0.062476397
173	0xb2	-0.40609658
174	0xed	-0.09892096
175	0x28	0.20825467
176	0xf9	-0.036444567
177	0xc6	-0.30196926
178	0x45	0.35923928
179	0x10	0.083301865
180	0x01	0.0052063665
181	0x0f	0.078095496
182	0xea	-0.11454006
183	0xfb	-0.026031833
184	0x1d	0.15098463
185	0x15	0.109333694
186	0xf2	-0.072889134
187	0xe9	-0.11974643
188	0xdc	-0.18742919
189	0x8a	-0.6143513
190	0xd6	-0.21866739
191	0x39	0.29676288
192	0xcc	-0.27073106
193	0xd5	-0.22387376
194	0x07	0.036444567
195	0xf6	-0.052063666
196	0xe5	-0.14057189
197	0x09	0.046857297
198	0xd8	-0.20825467
199	0xab	-0.44254115
200	0x21	0.17181009
201	0x0e	0.072889134
202	0x2a	0.21866739
203	0x1c	0.14577827
204	0x56	0.44774753
205	0x1c	0.14577827
206	0x2c	0.22908013
207	0x07	0.036444567
208	0xc9	-0.28635016
209	0x18	0.12495279
210	0x20	0.16660373
211	0x1f	0.16139737
212	0x56	0.44774753
213	0xd5	-0.22387376
214	0xe0	-0.16660373
215	0xb4	-0.39568385
216	0x17	0.11974643
217	0xcf	-0.25511196
218	0x04	0.020825466
219	0xf2	-0.072889134
220	0x18	0.12495279
221	0xc2	-0.32279474
222	0xed	-0.09892096
223	0xba	-0.36444566
224	0xe8	-0.12495279
225	0x25	0.19263557
226	0xee	-0.093714595
227	0xca	-0.28114378
228	0x69	0.54666847
229	0x19	0.13015917
230	0x1b	0.14057189
231	0x18	0.12495279
232	0x50	0.41650933
233	0xe8	-0.12495279
234	0xec	-0.10412733
235	0xd5	-0.22387376
236	0x4f	0.41130295
237	0x1f	0.16139737
238	0x12	0.093714595
239	0xcf	-0.25511196
240	0x23	0.18222283
241	0x10	0.083301865
242	0x3a	0.30196926
243	0xfe	-0.010412733
244	0xfb	-0.026031833
245	0x1f	0.16139737
246	0x03	0.015619099
247	0xdc	-0.18742919
248	0xe4	-0.14577827
249	0x22	0.17701647
250	0xdc	-0.18742919
251	0xda	-0.19784193
252	0x21	0.17181009
253	0x1c	0.14577827
254	0xdc	-0.18742919
255	0xf7	-0.046857297

conv_1d_time_stacked/conv1d_1/conv1d_bias f4 [32]
0	0xbe495b5b	-0.19663756
1	0xbe871482	-0.26382834
2	0x3f6d6eb6	0.92747056
3	0x3f4b4723	0.7940542
4	0x3db744fa	0.08948703
5	0xbe47b82c	-0.1950385
6	0x3eda8f1d	0.42687312
7	0xbe191bf0	-0.14952064
8	0xbf27f790	-0.65612125
9	0x3e57fd9c	0.21092838
10	0x3f2304e9	0.6367937
11	0xbe09ac2a	-0.13444582
12	0xbe64d403	-0.22346501
13	0xbf72f840	-0.9491005
14	0x3ef89054	0.48547614
15	0x3eea0654	0.45707953
16	0x3f3533c2	0.707821
17	0x3e60125a	0.21882
18	0x3ec6613b	0.38746056
19	0x3ed13606	0.4086153
20	0x3f14a8c0	0.5806999
21	0x3fa07494	1.2535577
22	0xbe35de6b	-0.17760627
23	0xbf7e235c	-0.99272704
24	0xbf4c3e8d	-0.79782945
25	0x3ebe74a8	0.37198377
26	0xbf3277e0	-0.69714165
27	0xbf023025	-0.5085471
28	0x3f04a8ff	0.5182037
29	0xbf669929	-0.90077454
30	0xbf28fa69	-0.66007096
31	0xbf506c9c	-0.81415725

conv_1d_time_stacked/conv1d_2/conv1d/ExpandDims_1 i1 [32, 1, 3, 32] scale=0.003300368 zero_point=0
0	0xf8	-0.026402945
1	0x06	0.019802209
2	0x0e	0.04620515
3	0xfa	-0.019802209
4	0x35	0.17491952
5	0x14	0.06600736
6	0xdf	-0.10891215
7	0x30	0.15841767
8	0xd5	-0.14191583
9	0x17	0.07590847
10	0x16	0.0726081
11	0xdd	-0.115512885
12	0xdf	-0.10891215
13	0xf9	-0.023102576
14	0x20	0.10561178
15	0xdc	-0.118813254
16	0xe6	-0.08580957
17	0xfd	-0.0099011045
18	0xf4	-0.039604418
19	0xe9	-0.07590847
20	0xce	-0.16501841
21	0xfc	-0.013201472
22	0x2a	0.13861546
23	0x0f	0.04950552
24	0xde	-0.11221252
25	0xdf	-0.10891215
26	0x22	0.11221252
27	0x27	0.12871435
28	0xec	-0.06600736
29	0xe6	-0.08580957
30	0x07	0.023102576
31	0x37	0.18152024
32	0x13	0.06270699
33	0xef	-0.05610626
34	0x0e	0.04620515
35	0x1b	0.089109935
36	0x25	0.12211362
37	0xdc	-0.118813254
38	0xd3	-0.14851657
39	0x1b	0.089109935
40	0xf6	-0.03300368
41	0x20	0.10561178
42	0x31	0.16171804
43	0xd6	-0.13861546
44	0x2c	0.1452162
45	0xde	-0.11221252
46	0x0a	0.03300368
47	0x08	0.026402945
48	0x12	0.059406627
49	0xfc	-0.013201472
50	0xd1	-0.1551173
51	0xe9	-0.07590847
52	0x07	0.023102576
53	0xe2	-0.09901104
54	0xea	-0.0726081
55	0x24	0.118813254
56	0xf5	-0.03630405
57	0xfd	-0.0099011045
58	0xf7	-0.029703313
59	0x18	0.079208836
60	0xd5	-0.14191583
61	0x1f	0.10231141
62	0x0f	0.04950552
63	0x29	0.13531509
64	0x16	0.0726081
65	0xf9	-0.023102576
66	0xe7	-0.082509205
67	0x0a	0.03300368
68	0x08	0.026402945
69	0xe0	-0.10561178
70	0xf2	-0.04620515
71	0x1b	0.089109935
72	0x20	0.10561178
73	0x1d	0.09571067
74	0xff	-0.003300368
75	0x12	0.059406627
76	0x18	0.079208836
77	0x0d	0.042904787
78	0x1d	0.09571067
79	0x1c	0.0924103
80	0xe2	-0.09901104
81	0x27	0.12871435
82	0xc2	-0.20462282
83	0xdf	-0.10891215
84	0xf0	-0.05280589
85	0x23	0.115512885
86	0x09	0.029703313
87	0xde	-0.11221252
88	0x00	0.0
89	0xff	-0.003300368
90	0xe9	-0.07590847
91	0x0a	0.03300368
92	0xee	-0.059406627
93	0xf6	-0.03300368
94	0x13	0.06270699
95	0xfb	-0.01650184
96	0xd9	-0.12871435
97	0x22	0.11221252
98	0xc7	-0.18812098
99	0xcf	-0.16171804
100	0xbf	-0.21452393
101	0x06	0.019802209
102	0xfa	-0.019802209
103	0xf5	-0.03630405
104	0x03	0.0099011045
105	0xf3	-0.042904787
106	0xbb	-0.2277254
107	0xf7	-0.029703313
108	0x0b	0.03630405
109	0x1f	0.10231141
110	0xca	-0.17821987
111	0x16	0.0726081
112	0xe5	-0.089109935
113	0xe3	-0.09571067
114	0xe5	-0.089109935
115	0x18	0.079208836
116	0x51	0.2673298
117	0xfe	-0.006600736
118	0x32	0.16501841
119	0xcd	-0.16831878
120	0x26	0.12541398
121	0xfe	-0.006600736
122	0x2b	0.14191583
123	0x4d	0.25412834
124	0x27	0.12871435
125	0x39	0.18812098
126	0xe9	-0.07590847
127	0xcf	-0.16171804
128	0xeb	-0.06930773
129	0xe9	-0.07590847
130	0x24	0.118813254
131	0x23	0.115512885
132	0xe3	-0.09571067
133	0x07	0.023102576
134	0x2d	0.14851657
135	0xee	-0.059406627
136	0x0d	0.042904787
137	0x0b	0.03630405
138	0x12	0.059406627
139	0x19	0.082509205
140	0xdb	-0.12211362
141	0xfa	-0.019802209
142	0xdb	-0.12211362
143	0xf0	-0.05280589
144	0x1f	0.10231141
145	0x13	0.06270699
146	0xe3	-0.09571067
147	0xe8	-0.079208836
148	0x3b	0.19472171
149	0xea	-0.0726081
150	0xf7	-0.029703313
151	0xcb	-0.17491952
152	0x01	0.003300368
153	0x21	0.10891215
154	0xed	-0.06270699
155	0x34	0.17161915
156	0xfe	-0.006600736
157	0x40	0.21122356
158	0x30	0.15841767
159	0x31	0.16171804
160	0xf4	-0.039604418
161	0xeb	-0.06930773
162	0xf8	-0.026402945
163	0xd7	-0.13531509
164	0xe5	-0.089109935
165	0xe4	-0.0924103
166	0xe9	-0.07590847
167	0x15	0.06930773
168	0xbf	-0.21452393
169	0xc1	-0.20792319
170	0x36	0.17821987
171	0xe2	-0.09901104
172	0x28	0.13201472
173	0x32	0.16501841
174	0xd9	-0.12871435
175	0xd0	-0.15841767
176	0xe9	-0.07590847
177	0x09	0.029703313
178	0x0e	0.04620515
179	0x1d	0.09571067
180	0xd0	-0.15841767
181	0x1a	0.08580957
182	0xf6	-0.03300368
183	0xd5	-0.14191583
184	0x0f	0.04950552
185	0x13	0.06270699
186	0xeb	-0.06930773
187	0xdc	-0.118813254
188	0x16	0.0726081
189	0x0c	0.039604418
190	0x07	0.023102576
191	0xba	-0.23102577
192	0xd3	-0.14851657
193	0x1f	0.10231141
194	0xd0	-0.15841767
195	0xef	-0.05610626
196	0x08	0.026402945
197	0x16	0.0726081
198	0x14	0.06600736
199	0x19	0.082509205
200	0x07	0.023102576
201	0xdd	-0.115512885
202	0xc6	-0.19142134
203	0x2b	0.14191583
204	0xe5	-0.089109935
205	0xd4	-0.1452162
206	0x04	0.013201472
207	0x51	0.2673298
208	0x3c	0.19802208
209	0x24	0.118813254
210	0xfa	-0.019802209
211	0x06	0.019802209
212	0xd7	-0.13531509
213	0xdb	-0.12211362
214	0x2f	0.1551173
215	0x0c	0.039604418
216	0x0a	0.03300368
217	0x1c	0.0924103
218	0xdc	-0.118813254
219	0x12	0.059406627
220	0x27	0.12871435
221	0xf9	-0.023102576
222	0x09	0.029703313
223	0x0f	0.04950552
224	0xd7	-0.13531509
225	0xfe	-0.006600736
226	0x1b	0.089109935
227	0x1b	0.089109935
228	0x05	0.01650184
229	0x38	0.1848206
230	0xdc	-0.118813254
231	0x2c	0.1452162
232	0x21	0.10891215
233	0xbf	-0.21452393
234	0x0c	0.039604418
235	0x0f	0.04950552
236	0xff	-0.003300368
237	0x22	0.11221252
238	0xec	-0.06600736
239	0xf7	-0.029703313
240	0x4b	0.2475276
241	0xe3	-0.09571067
242	0xe6	-0.08580957
243	0xee	-0.059406627
244	0x11	0.05610626
245	0xbf	-0.21452393
246	0x2a	0.13861546
247	0xfd	-0.0099011045
248	0x0d	0.042904787
249	0xd0	-0.15841767
250	0xd5	-0.14191583
251	0xf7	-0.029703313
252	0x2d	0.14851657
253	0x24	0.118813254
254	0x22	0.11221252
255	0x10	0.05280589

conv_1d_time_stacked/conv1d_2/conv1d_bias f4 [32]
0	0xbd043020	-0.032272458
1	0x3ed77cce	0.42087406
2	0xbe34caa9	-0.17655434
3	0x3f8baf8e	1.091295
4	0x3ee861a9	0.4538701
5	0xbf00f959	-0.50380474
6	0x3e8d4884	0.27594388
7	0x3f84edad	1.0385033
8	0x3ec6ace6	0.38803786
9	0xbe55043e	-0.208024
10	0x3f4cfc80	0.80072784
11	0xbe7ef5fd	-0.24898525
12	0x3e99ba0a	0.3002475
13	0xbe9b6c11	-0.30355886
14	0x3ea2ee84	0.31822598
15	0x3e41c798	0.18923795
16	0xbde66554	-0.112497956
17	0xbf44423a	-0.76663554
18	0x3f0101e5	0.50393516
19	0x3e981a8c	0.29707754
20	0x3f969210	1.1763325
21	0xbed8a802	-0.4231568
22	0x3e5eae57	0.21746193
23	0x3e1c49d7	0.15262543
24	0xbeadcf1a	-0.33947068
25	0x3f060074	0.5234444
26	0x3f69b18e	0.9128655
27	0x3e70baca	0.23508754
28	0x3d2f8b70	0.042857587
29	0x3ebe55ea	0.37174922
30	0xbd99e035	-0.07513467
31	0xbedb1159	-0.42786673

conv_1d_time_stacked/conv1d_3/conv1d/ExpandDims_1 i1 [64, 1, 3, 32] scale=0.004440472 zero_point=0
0	0xdf	-0.14653558
1	0x13	0.08436897
2	0xef	-0.07548802
3	0xea	-0.09769038
4	0x1b	0.119892746
5	0xef	-0.07548802
6	0x20	0.1420951
7	0xe9	-0.10213085
8	0x02	0.008880944
9	0x19	0.1110118
10	0xd5	-0.19094029
11	0xeb	-0.09324991
12	0xfc	-0.017761888
13	0xf1	-0.06660708
14	0x19	0.1110118
15	0xfa	-0.026642833
16	0x15	0.09324991
17	0x12	0.079928495
18	0x04	0.017761888
19	0x02	0.008880944
20	0x30	0.21314266
21	0x16	0.09769038
22	0xfe	-0.008880944
23	0x13	0.08436897
24	0xf4	-0.053285666
25	0xf7	-0.039964247
26	0xfd	-0.013321416
27	0xda	-0.16873793
28	0x2d	0.19982123
29	0xf7	-0.039964247
30	0x00	0.0
31	0x1b	0.119892746
32	0x05	0.02220236
33	0x0c	0.053285666
34	0xe4	-0.12433322
35	0x28	0.17761888
36	0x05	0.02220236
37	0x1a	0.115452275
38	0x0f	0.06660708
39	0x15	0.09324991
40	0x1d	0.12877369
41	0xe6	-0.115452275
42	0xf8	-0.035523776
43	0xff	-0.004440472
44	0xf5	-0.04884519
45	0xe5	-0.119892746
46	0x22	0.15097605
47	0xe3	-0.12877369
48	0x00	0.0
49	0xf2	-0.06216661
50	0x04	0.017761888
51	0xe6	-0.115452275
52	0x12	0.079928495
53	0xd2	-0.2042617
54	0xe5	-0.119892746
55	0xe8	-0.10657133
56	0x07	0.031083304
57	0x35	0.23534502
58	0xf2	-0.06216661
59	0xe3	-0.12877369
60	0x3d	0.27086878
61	0x0d	0.057726137
62	0xed	-0.08436897
63	0xf0	-0.07104755
64	0xe3	-0.12877369
65	0x01	0.004440472
66	0xff	-0.004440472
67	0x25	0.16429746
68	0xd8	-0.17761888
69	0x1b	0.119892746
70	0x05	0.02220236
71	0x0e	0.06216661
72	0x30	0.21314266
73	0xd5	-0.19094029
74	0x1a	0.115452275
75	0xd8	-0.17761888
76	0xfb	-0.02220236
77	0xd4	-0.19538076
78	0xff	-0.004440472
79	0xdc	-0.15985699
80	0x0b	0.04884519
81	0x05	0.02220236
82	0x1f	0.13765463
83	0xe9	-0.10213085
84	0x12	0.079928495
85	0xf4	-0.053285666
86	0xfd	-0.013321416
87	0x07	0.031083304
88	0x01	0.004440472
89	0x2e	0.2042617
90	0x09	0.039964247
91	0x00	0.0
92	0x1e	0.13321416
93	0xea	-0.09769038
94	0xf8	-0.035523776
95	0xe9	-0.10213085
96	0x07	0.031083304
97	0x2a	0.18649982
98	0xcd	-0.22646408
99	0xf1	-0.06660708
100	0x0b	0.04884519
101	0xf4	-0.053285666
102	0x30	0.21314266
103	0xfc	-0.017761888
104	0x02	0.008880944
105	0xc8	-0.24866644
106	0x10	0.07104755
107	0xf4	-0.053285666
108	0xd7	-0.18205935
109	0x0d	0.057726137
110	0xe0	-0.1420951
111	0x31	0.21758313
112	0x01	0.004440472
113	0x08	0.035523776
114	0xcc	-0.23090455
115	0x13	0.08436897
116	0x48	0.31971398
117	0x30	0.21314266
118	0xd2	-0.2042617
119	0xe7	-0.1110118
120	0x0e	0.06216661
121	0xd6	-0.18649982
122	0xef	-0.07548802
123	0xde	-0.15097605
124	0xe9	-0.10213085
125	0x1e	0.13321416
126	0x2c	0.19538076
127	0x1e	0.13321416
128	0xdb	-0.16429746
129	0xe7	-0.1110118
130	0x08	0.035523776
131	0xe9	-0.10213085
132	0xdf	-0.14653558
133	0x1c	0.12433322
134	0x24	0.15985699
135	0xfd	-0.013321416
136	0xf9	-0.031083304
137	0x0a	0.04440472
138	0xfe	-0.008880944
139	0x0e	0.06216661
140	0x08	0.035523776
141	0x11	0.07548802
142	0xff	-0.004440472
143	0x15	0.09324991
144	0xe7	-0.1110118
145	0xfd	-0.013321416
146	0xe2	-0.13321416
147	0x26	0.16873793
148	0x3d	0.27086878
149	0xe4	-0.12433322
150	0x0b	0.04884519
151	0x01	0.004440472
152	0xff	-0.004440472
153	0x12	0.079928495
154	0xb4	-0.33747587
155	0xce	-0.2220236
156	0x00	0.0
157	0x0e	0.06216661
158	0x27	0.1731784
159	0x29	0.18205935
160	0xec	-0.08880944
161	0xff	-0.004440472
162	0xf1	-0.06660708
163	0xf7	-0.039964247
164	0xdf	-0.14653558
165	0x19	0.1110118
166	0x0f	0.06660708
167	0xea	-0.09769038
168	0x0a	0.04440472
169	0xeb	-0.09324991
170	0xe8	-0.10657133
171	0x06	0.026642833
172	0x4f	0.3507973
173	0xdb	-0.16429746
174	0xea	-0.09769038
175	0xe3	-0.12877369
176	0xe3	-0.12877369
177	0x26	0.16873793
178	0x11	0.07548802
179	0x08	0.035523776
180	0xf0	-0.07104755
181	0xfb	-0.02220236
182	0x12	0.079928495
183	0x06	0.026642833
184	0x29	0.18205935
185	0x17	0.10213085
186	0xb9	-0.31527352
187	0xce	-0.2220236
188	0xfc	-0.017761888
189	0xee	-0.079928495
190	0xf1	-0.06660708
191	0x06	0.026642833
192	0xce	-0.2220236
193	0x33	0.22646408
194	0x11	0.07548802
195	0xe7	-0.1110118
196	0x03	0.013321416
197	0xd2	-0.2042617
198	0xf1	-0.06660708
199	0x05	0.02220236
200	0xf8	-0.035523776
201	0x1b	0.119892746
202	0xf5	-0.04884519
203	0xdf	-0.14653558
204	0x0a	0.04440472
205	0x25	0.16429746
206	0xf6	-0.04440472
207	0xf6	-0.04440472
208	0xf0	-0.07104755
209	0x13	0.08436897
210	0xfc	-0.017761888
211	0xe6	-0.115452275
212	0xf4	-0.053285666
213	0x28	0.17761888
214	0xf1	-0.06660708
215	0xfd	-0.013321416
216	0x12	0.079928495
217	0xed	-0.08436897
218	0xfa	-0.026642833
219	0x26	0.16873793
220	0xbe	-0.29307115
221	0xf0	-0.07104755
222	0xb4	-0.33747587
223	0xec	-0.08880944
224	0xf8	-0.035523776
225	0x12	0.079928495
226	0xc1	-0.27974972
227	0xea	-0.09769038
228	0x21	0.14653558
229	0x18	0.10657133
230	0xe7	-0.1110118
231	0x25	0.16429746
232	0xd7	-0.18205935
233	0x13	0.08436897
234	0x29	0.18205935
235	0xf4	-0.053285666
236	0x0e	0.06216661
237	0xe7	-0.1110118
238	0xf4	-0.053285666
239	0x06	0.026642833
240	0x00	0.0
241	0x02	0.008880944
242	0xdf	-0.14653558
243	0x19	0.1110118
244	0x0c	0.053285666
245	0x23	0.15541652
246	0x08	0.035523776
247	0x1f	0.13765463
248	0x39	0.2531069
249	0x2b	0.19094029
250	0x44	0.3019521
251	0xf1	-0.06660708
252	0x14	0.08880944
253	0xef	-0.07548802
254	0xf8	-0.035523776
255	0x21	0.14653558

conv_1d_time_stacked/conv1d_3/conv1d_bias f4 [64]
0	0xbe29cb1e	-0.1658139
1	0x3e8874da	0.2665165
2	0xbe7a2e60	-0.24431753
3	0xbf0685b9	-0.52547795
4	0xbd81166b	-0.06303104
5	0xbeebfa75	-0.4608952
6	0x3f0bff6b	0.5468661
7	0x3f104728	0.56358576
8	0x3e4cf5a1	0.20015575
9	0xbeae638e	-0.3406033
10	0x3c9b920c	0.018990539
11	0x3f428e4f	0.75998396
12	0x3f6c0fd9	0.9221168
13	0x3ead92ca	0.33901054
14	0xbf1b4a81	-0.6066056
15	0x3e743bab	0.23850887
16	0x3f45755a	0.7713219
17	0xbee4bf38	-0.44677138
18	0x3f199f6d	0.6000889
19	0xbdaf3652	-0.08555283
20	0x3f17431e	0.5908679
21	0xbedd4188	-0.4321406
22	0x3d9d4ba1	0.07680441
23	0x3f349466	0.7053894
24	0xbfa50e49	-1.2894984
25	0xbf26f459	-0.65216595
26	0xbd1809cc	-0.037118718
27	0x3e908204	0.28224194
28	0xc000467c	-2.004302
29	0xbf8967f6	-1.0734851
30	0x3d8ad7a3	0.06779411
31	0x3fa1f0ae	1.2651575
32	0x3e8263f9	0.25466898
33	0xbee8f69a	-0.45500642
34	0x3f47b128	0.78004694
35	0xbf1b3d1b	-0.60640115
36	0xbe3aa541	-0.18227102
37	0xbe4fb18a	-0.2028257
38	0x3f00ebe2	0.5035993
39	0xbe87ead4	-0.26546347
40	0x3ddf1cf0	0.10894191
41	0xbf008696	-0.5020536
42	0x3f6a02fe	0.91410816
43	0xbd9976a0	-0.07493329
44	0xbf83fb01	-1.0310975
45	0xbe204f56	-0.15655264
46	0xbf0bb05d	-0.54565984
47	0xbf7f4b92	-0.99724686
48	0xbf56e26e	-0.83939254
49	0xbeb335f7	-0.3500211
50	0xbecde43e	-0.40213197
51	0x3ecec8ad	0.40387478
52	0x3e3b1f74	0.18273717
53	0x3f2555c4	0.6458399
54	0x3f885024	1.0649457
55	0xbed1294e	-0.40851825
56	0xbe8a6c46	-0.2703573
57	0xbf88e2c1	-1.06942
58	0xbef1466d	-0.47124043
59	0x3ed2d30c	0.4117664
60	0x3e366bbe	0.17814538
61	0xbef7affe	-0.4837646
62	0x3e30a1f6	0.17249283
63	0x3e5d36ec	0.21602982

conv_1d_time_stacked/conv1d_4/conv1d/ExpandDims_1 i1 [64, 1, 3, 64] scale=0.0020522808 zero_point=0
0	0x02	0.0041045616
1	0x22	0.06977755
2	0x1d	0.059516143
3	0x21	0.06772526
4	0x0e	0.028731931
5	0x16	0.04515018
6	0x0c	0.024627369
7	0xfe	-0.0041045616
8	0xf8	-0.016418247
9	0x12	0.036941055
10	0xf0	-0.032836493
11	0x18	0.049254738
12	0x1f	0.06362071
13	0x04	0.008209123
14	0xeb	-0.0430979
15	0xdb	-0.07593439
16	0xfe	-0.0041045616
17	0x10	0.032836493
18	0xe8	-0.049254738
19	0x15	0.0430979
20	0x18	0.049254738
21	0x32	0.10261404
22	0xf2	-0.028731931
23	0x09	0.018470528
24	0xf0	-0.032836493
25	0x2b	0.088248074
26	0x19	0.05130702
27	0xe9	-0.04720246
28	0x02	0.0041045616
29	0x01	0.0020522808
30	0x0d	0.02667965
31	0xff	-0.0020522808
32	0x13	0.038993336
33	0x26	0.07798667
34	0x29	0.08414351
35	0x0a	0.020522809
36	0x00	0.0
37	0x19	0.05130702
38	0xf4	-0.024627369
39	0x0c	0.024627369
40	0xfe	-0.0041045616
41	0x03	0.006156842
42	0xe6	-0.0533593
43	0xf6	-0.020522809
44	0xf8	-0.016418247
45	0x07	0.0143659655
46	0xff	-0.0020522808
47	0x1f	0.06362071
48	0x03	0.006156842
49	0x14	0.041045617
50	0xfa	-0.012313684
51	0x02	0.0041045616
52	0xec	-0.041045617
53	0x12	0.036941055
54	0x0a	0.020522809
55	0x11	0.034888774
56	0x1e	0.061568424
57	0x1a	0.0533593
58	0x04	0.008209123
59	0xf1	-0.030784212
60	0x22	0.06977755
61	0xe1	-0.06362071
62	0xfd	-0.006156842
63	0xff	-0.0020522808
64	0x03	0.006156842
65	0xfc	-0.008209123
66	0xf7	-0.018470528
67	0x12	0.036941055
68	0xed	-0.038993336
69	0x05	0.010261404
70	0x1b	0.05541158
71	0xdf	-0.06772526
72	0xe3	-0.059516143
73	0xf5	-0.02257509
74	0xec	-0.041045617
75	0x0b	0.02257509
76	0x31	0.10056176
77	0x0a	0.020522809
78	0x0d	0.02667965
79	0x06	0.012313684
80	0xf6	-0.020522809
81	0x12	0.036941055
82	0x12	0.036941055
83	0xe3	-0.059516143
84	0x0e	0.028731931
85	0x24	0.07388211
86	0xfe	-0.0041045616
87	0xf3	-0.02667965
88	0xf5	-0.02257509
89	0x28	0.082091235
90	0xed	-0.038993336
91	0x08	0.016418247
92	0xeb	-0.0430979
93	0xe8	-0.049254738
94	0xf7	-0.018470528
95	0xf2	-0.028731931
96	0x21	0.06772526
97	0x30	0.098509476
98	0xf5	-0.02257509
99	0x20	0.065672986
100	0x1c	0.057463862
101	0xe6	-0.0533593
102	0x09	0.018470528
103	0xf6	-0.020522809
104	0xf3	-0.02667965
105	0x0c	0.024627369
106	0xef	-0.034888774
107	0xef	-0.034888774
108	0x1b	0.05541158
109	0xf8	-0.016418247
110	0xf3	-0.02667965
111	0x05	0.010261404
112	0xf5	-0.02257509
113	0x00	0.0
114	0xf7	-0.018470528
115	0xf1	-0.030784212
116	0xfd	-0.006156842
117	0xee	-0.036941055
118	0x18	0.049254738
119	0x01	0.0020522808
120	0x0c	0.024627369
121	0xfe	-0.0041045616
122	0x04	0.008209123
123	0x0b	0.02257509
124	0x07	0.0143659655
125	0xd7	-0.08414351
126	0xf4	-0.024627369
127	0x27	0.08003895
128	0x04	0.008209123
129	0x0c	0.024627369
130	0xfc	-0.008209123
131	0xfd	-0.006156842
132	0x24	0.07388211
133	0x11	0.034888774
134	0xf1	-0.030784212
135	0xe7	-0.05130702
136	0x06	0.012313684
137	0x08	0.016418247
138	0x19	0.05130702
139	0xf9	-0.0143659655
140	0x1c	0.057463862
141	0xe0	-0.065672986
142	0xf5	-0.02257509
143	0x0c	0.024627369
144	0xf2	-0.028731931
145	0x02	0.0041045616
146	0x1e	0.061568424
147	0xd0	-0.098509476
148	0x08	0.016418247
149	0x16	0.04515018
150	0xff	-0.0020522808
151	0xe4	-0.057463862
152	0x0e	0.028731931
153	0xfa	-0.012313684
154	0x03	0.006156842
155	0xfa	-0.012313684
156	0xf3	-0.02667965
157	0xe8	-0.049254738
158	0xf5	-0.02257509
159	0xfd	-0.006156842
160	0x09	0.018470528
161	0x1e	0.061568424
162	0xfa	-0.012313684
163	0x13	0.038993336
164	0x1c	0.057463862
165	0xe5	-0.05541158
166	0xee	-0.036941055
167	0xfc	-0.008209123
168	0xf1	-0.030784212
169	0xfb	-0.010261404
170	0xd6	-0.0861958
171	0x04	0.008209123
172	0xf6	-0.020522809
173	0xfb	-0.010261404
174	0x0f	0.030784212
175	0xfb	-0.010261404
176	0x12	0.036941055
177	0xe5	-0.05541158
178	0xfb	-0.010261404
179	0xfb	-0.010261404
180	0x02	0.0041045616
181	0xfc	-0.008209123
182	0x08	0.016418247
183	0xec	-0.041045617
184	0xf7	-0.018470528
185	0x0f	0.030784212
186	0xef	-0.034888774
187	0xed	-0.038993336
188	0x03	0.006156842
189	0x0e	0.028731931
190	0xff	-0.0020522808
191	0x1d	0.059516143
192	0x1b	0.05541158
193	0x38	0.114927724
194	0x1e	0.061568424
195	0x09	0.018470528
196	0xf2	-0.028731931
197	0x28	0.082091235
198	0xed	-0.038993336
199	0xdc	-0.07388211
200	0x2f	0.0964572
201	0xf1	-0.030784212
202	0xfb	-0.010261404
203	0x07	0.0143659655
204	0x33	0.10466632
205	0xf0	-0.032836493
206	0x0d	0.02667965
207	0xdb	-0.07593439
208	0xd7	-0.08414351
209	0xfa	-0.012313684
210	0x43	0.13750282
211	0x0d	0.02667965
212	0x09	0.018470528
213	0x05	0.010261404
214	0xf8	-0.016418247
215	0xe7	-0.05130702
216	0xea	-0.04515018
217	0xde	-0.06977755
218	0x21	0.06772526
219	0x12	0.036941055
220	0x16	0.04515018
221	0x01	0.0020522808
222	0xef	-0.034888774
223	0x09	0.018470528
224	0x22	0.06977755
225	0x1f	0.06362071
226	0x14	0.041045617
227	0x1e	0.061568424
228	0x1e	0.061568424
229	0x04	0.008209123
230	0xe7	-0.05130702
231	0xe0	-0.065672986
232	0xe3	-0.059516143
233	0x02	0.0041045616
234	0x24	0.07388211
235	0xe7	-0.05130702
236	0x2b	0.088248074
237	0xe4	-0.057463862
238	0xe6	-0.0533593
239	0xe6	-0.0533593
240	0x01	0.0020522808
241	0xef	-0.034888774
242	0xf6	-0.020522809
243	0xff	-0.0020522808
244	0x1f	0.06362071
245	0x0f	0.030784212
246	0xe9	-0.04720246
247	0x03	0.006156842
248	0xff	-0.0020522808
249	0x12	0.036941055
250	0x2c	0.09030036
251	0xfc	-0.008209123
252	0x19	0.05130702
253	0x1f	0.06362071
254	0x29	0.08414351
255	0x04	0.008209123

conv_1d_time_stacked/conv1d_4/conv1d_bias f4 [64]
0	0xbedc9d7d	-0.43088904
1	0x3f01d022	0.5070821
2	0x3f323cd8	0.6962409
3	0x3fa2312f	1.267126
4	0x3f4f472a	0.8096796
5	0x3f62cd94	0.8859494
6	0xbd3337b6	-0.043754302
7	0x3f94e525	1.1632429
8	0xbf303839	-0.6883579
9	0xbe0e7fc2	-0.13915923
10	0xbea43e9f	-0.32079026
11	0x3fa52f12	1.290499
12	0x3f254d27	0.6457085
13	0x3f023a63	0.5087034
14	0x3ca9426a	0.020661552
15	0x3f51e30b	0.81987065
16	0x3f6baac5	0.9205745
17	0x3fa45ee8	1.2841463
18	0x3f427430	0.7595854
19	0x3f272178	0.65285444
20	0x3e3b2328	0.1827513
21	0xbf23044f	-0.6367845
22	0xbe59fe86	-0.21288499
23	0x3eda7095	0.42664018
24	0x3f4b8ed4	0.79514813
25	0x3e179c3a	0.1480569
26	0xbed8e4ec	-0.42362154
27	0x3f1ad1b1	0.60476214
28	0x3f729f21	0.9477406
29	0xbee57849	-0.44818333
30	0x3f4f5eda	0.81004107
31	0xbc99d2f8	-0.018777356
32	0x3eddd6bc	0.43327892
33	0x3ef8d359	0.48598745
34	0xbe9eecf0	-0.31040144
35	0xbebf6aa7	-0.37386057
36	0x3e3f3561	0.18672706
37	0x3f1c8837	0.6114535
38	0xbe95d028	-0.29260373
39	0x3f0fd96d	0.5619114
40	0xbeb9c365	-0.36281887
41	0x3f95542f	1.1666316
42	0x3f3e14b5	0.74250346
43	0x3effee16	0.49986333
44	0x3e3160f4	0.17322141
45	0x3f3919e1	0.72305113
46	0x3f8bfb30	1.0936031
47	0x3e32916c	0.17438287
48	0x3ef9b321	0.48769477
49	0x3fabc1ff	1.3418578
50	0x3f7ddaad	0.991618
51	0x3e9d5b36	0.3073365
52	0x3f90e5bf	1.1320113
53	0xbd2306a2	-0.039801247
54	0x3f2f23e8	0.68414164
55	0x3e000f2a	0.12505785
56	0x3f8079f8	1.0037222
57	0x3e9d3cd3	0.30710468
58	0xbe8be6c0	-0.27324486
59	0xbe2941b8	-0.16528976
60	0x3d8ad4f4	0.06778899
61	0xbeae4456	-0.3403651
62	0xbd85267b	-0.0650148
63	0x3ea606b3	0.32426986

conv_1d_time_stacked/conv1d_5/conv1d/ExpandDims_1 i1 [128, 1, 3, 64] scale=0.0023711156 zero_point=0
0	0xea	-0.052164543
1	0xdd	-0.082989044
2	0xf3	-0.030824503
3	0x0e	0.03319562
4	0xfc	-0.009484462
5	0xff	-0.0023711156
6	0x19	0.059277892
7	0xeb	-0.04979343
8	0x20	0.0758757
9	0x02	0.004742231
10	0x3a	0.13752471
11	0x2c	0.10432909
12	0x02	0.004742231
13	0x0d	0.030824503
14	0x18	0.056906775
15	0x18	0.056906775
16	0xdd	-0.082989044
17	0xfb	-0.011855578
18	0x23	0.082989044
19	0x07	0.01659781
20	0x09	0.02134004
21	0x0d	0.030824503
22	0x0c	0.028453387
23	0xfa	-0.014226694
24	0x2b	0.10195797
25	0xe0	-0.0758757
26	0xdc	-0.08536016
27	0x00	0.0
28	0x28	0.094844624
29	0x2f	0.11144243
30	0xff	-0.0023711156
31	0xc8	-0.13278247
32	0xf4	-0.028453387
33	0x01	0.0023711156
34	0xf0	-0.03793785
35	0xec	-0.047422312
36	0x11	0.040308967
37	0xe7	-0.059277892
38	0xfc	-0.009484462
39	0xd6	-0.09958686
40	0x14	0.047422312
41	0xfd	-0.007113347
42	0x09	0.02134004
43	0x1e	0.071133465
44	0xfc	-0.009484462
45	0xe8	-0.056906775
46	0xd1	-0.11144243
47	0x11	0.040308967
48	0x0e	0.03319562
49	0xfe	-0.004742231
50	0xea	-0.052164543
51	0xf5	-0.026082272
52	0x0f	0.035566732
53	0xfb	-0.011855578
54	0xfe	-0.004742231
55	0xf2	-0.03319562
56	0x10	0.03793785
57	0x07	0.01659781
58	0xff	-0.0023711156
59	0x1f	0.07350458
60	0xdd	-0.082989044
61	0x10	0.03793785
62	0xd0	-0.11381355
63	0xdd	-0.082989044
64	0x27	0.09247351
65	0x1d	0.068762355
66	0x16	0.052164543
67	0x1f	0.07350458
68	0xf6	-0.023711156
69	0x0e	0.03319562
70	0x19	0.059277892
71	0x12	0.04268008
72	0x22	0.080617934
73	0xf4	-0.028453387
74	0x07	0.01659781
75	0x15	0.04979343
76	0xff	-0.0023711156
77	0x0a	0.023711156
78	0x12	0.04268008
79	0x11	0.040308967
80	0x14	0.047422312
81	0x0c	0.028453387
82	0x11	0.040308967
83	0x07	0.01659781
84	0x0e	0.03319562
85	0x19	0.059277892
86	0x0e	0.03319562
87	0x15	0.04979343
88	0x1c	0.06639124
89	0xd8	-0.094844624
90	0x05	0.011855578
91	0xe5	-0.06402012
92	0xff	-0.0023711156
93	0x36	0.12804024
94	0x0a	0.023711156
95	0xc9	-0.13041136
96	0xe8	-0.056906775
97	0x0d	0.030824503
98	0xe4	-0.06639124
99	0xfb	-0.011855578
100	0x11	0.040308967
101	0x22	0.080617934
102	0xeb	-0.04979343
103	0xfb	-0.011855578
104	0x08	0.018968925
105	0x05	0.011855578
106	0x13	0.045051195
107	0x16	0.052164543
108	0xfa	-0.014226694
109	0x05	0.011855578
110	0xce	-0.118555784
111	0xe3	-0.068762355
112	0xf8	-0.018968925
113	0x18	0.056906775
114	0x06	0.014226694
115	0xec	-0.047422312
116	0xf5	-0.026082272
117	0xf3	-0.030824503
118	0x06	0.014226694
119	0x11	0.040308967
120	0x18	0.056906775
121	0xf0	-0.03793785
122	0xfa	-0.014226694
123	0xf6	-0.023711156
124	0xed	-0.045051195
125	0xf5	-0.026082272
126	0x0c	0.028453387
127	0xfb	-0.011855578
128	0x0d	0.030824503
129	0x18	0.056906775
130	0xfb	-0.011855578
131	0x0b	0.026082272
132	0x28	0.094844624
133	0xe6	-0.061649006
134	0xee	-0.04268008
135	0x1c	0.06639124
136	0x0e	0.03319562
137	0x24	0.08536016
138	0xfc	-0.009484462
139	0xfd	-0.007113347
140	0x0e	0.03319562
141	0xea	-0.052164543
142	0x14	0.047422312
143	0x2a	0.09958686
144	0x1a	0.061649006
145	0x04	0.009484462
146	0xe6	-0.061649006
147	0x24	0.08536016
148	0xe9	-0.054535657
149	0x2c	0.10432909
150	0x1e	0.071133465
151	0xf9	-0.01659781
152	0x1f	0.07350458
153	0x15	0.04979343
154	0x02	0.004742231
155	0xf4	-0.028453387
156	0xfb	-0.011855578
157	0x0a	0.023711156
158	0x0e	0.03319562
159	0xcf	-0.11618467
160	0xe1	-0.07350458
161	0x14	0.047422312
162	0xe7	-0.059277892
163	0xfd	-0.007113347
164	0xf8	-0.018968925
165	0xfa	-0.014226694
166	0xfa	-0.014226694
167	0xe6	-0.061649006
168	0x23	0.082989044
169	0xf2	-0.03319562
170	0xee	-0.04268008
171	0xec	-0.047422312
172	0x07	0.01659781
173	0xf4	-0.028453387
174	0xe8	-0.056906775
175	0x0f	0.035566732
176	0xf4	-0.028453387
177	0xee	-0.04268008
178	0xe0	-0.0758757
179	0xee	-0.04268008
180	0x00	0.0
181	0x05	0.011855578
182	0xff	-0.0023711156
183	0xf1	-0.035566732
184	0xdd	-0.082989044
185	0x1e	0.071133465
186	0xe9	-0.054535657
187	0x1a	0.061649006
188	0x1d	0.068762355
189	0x01	0.0023711156
190	0x12	0.04268008
191	0x0d	0.030824503
192	0x22	0.080617934
193	0x1e	0.071133465
194	0xf5	-0.026082272
195	0x10	0.03793785
196	0x18	0.056906775
197	0x06	0.014226694
198	0xf4	-0.028453387
199	0x13	0.045051195
200	0xf5	-0.026082272
201	0x0a	0.023711156
202	0x1f	0.07350458
203	0x06	0.014226694
204	0x16	0.052164543
205	0xe8	-0.056906775
206	0x08	0.018968925
207	0xe2	-0.071133465
208	0xea	-0.052164543
209	0xe1	-0.07350458
210	0x12	0.04268008
211	0xe3	-0.068762355
212	0xf5	-0.026082272
213	0x12	0.04268008
214	0x26	0.09010239
215	0xf7	-0.02134004
216	0x1b	0.06402012
217	0xe3	-0.068762355
218	0xee	-0.04268008
219	0xce	-0.118555784
220	0x01	0.0023711156
221	0xec	-0.047422312
222	0x26	0.09010239
223	0xff	-0.0023711156
224	0x16	0.052164543
225	0x21	0.07824682
226	0x15	0.04979343
227	0x06	0.014226694
228	0xeb	-0.04979343
229	0x04	0.009484462
230	0xf1	-0.035566732
231	0xe0	-0.0758757
232	0x06	0.014226694
233	0x13	0.045051195
234	0x1e	0.071133465
235	0x06	0.014226694
236	0x0f	0.035566732
237	0xfa	-0.014226694
238	0x10	0.03793785
239	0x0b	0.026082272
240	0x0d	0.030824503
241	0x1b	0.06402012
242	0xfc	-0.009484462
243	0xfa	-0.014226694
244	0x11	0.040308967
245	0x1f	0.07350458
246	0xef	-0.040308967
247	0xf2	-0.03319562
248	0x0c	0.028453387
249	0xe5	-0.06402012
250	0x08	0.018968925
251	0xf4	-0.028453387
252	0x01	0.0023711156
253	0xf7	-0.02134004
254	0x05	0.011855578
255	0x04	0.009484462

conv_1d_time_stacked/conv1d_5/conv1d_bias f4 [128]
0	0xbef9b2af	-0.48769137
1	0xbf05ea98	-0.52311087
2	0x3e5a15fa	0.21297446
3	0x3f32b6f0	0.6981039
4	0x3f263a9a	0.6493317
5	0x3f3666e5	0.71250755
6	0xbd000118	-0.031251043
7	0x3d13f8d0	0.036125958
8	0x3f44024e	0.76566017
9	0x3f81fd60	1.0155449
10	0x3d4ce37e	0.05002164
11	0x3ebd2611	0.36943105
12	0xbcf405f1	-0.02978799
13	0x3f53fde0	0.8280926
14	0x3ee4686f	0.44610927
15	0x3f5c0b66	0.8595489
16	0x3ef3ea96	0.47639912
17	0x3f5496ae	0.8304242
18	0x3ed14a0f	0.40876815
19	0xbf0f29b0	-0.55922985
20	0x3f3acc1c	0.72967696
21	0x3f26d037	0.6516146
22	0xbd4e812a	-0.05041615
23	0x3db812d8	0.08987969
24	0x3f744203	0.95413226
25	0xbc494b02	-0.01228595
26	0x3ef02a57	0.46907303
27	0xbe5fcdbb	-0.21855824
28	0xbecb7f37	-0.39745495
29	0x3f69e369	0.91362625
30	0x3d5b14c8	0.053486615
31	0x3e4110de	0.1885409
32	0x3f60ef28	0.87864923
33	0x3bbc8810	0.0057535246
34	0xbf11380a	-0.56726134
35	0x3ef37a44	0.4755422
36	0xbcf9ff31	-0.030517193
37	0xbeac6d09	-0.33676937
38	0x3d9dccff	0.077051155
39	0x3f02fda1	0.51168257
40	0x3f2105cf	0.6289949
41	0x3d56fd17	0.05248746
42	0x3d364d5a	0.044507362
43	0xbce4168e	-0.027842786
44	0xbef03b97	-0.46920463
45	0x3e54d91f	0.2078595
46	0x3ca60de8	0.020270303
47	0x3f07b266	0.5300659
48	0x3c0646b8	0.008195572
49	0x3f79adf5	0.9753106
50	0xbe949174	-0.29017222
51	0x3f65f04e	0.898198
52	0x3e93856a	0.28812724
53	0x3e30d6d6	0.17269453
54	0x3f814ef1	1.0102216
55	0xbec7ae0b	-0.38999972
56	0xbd9d42ee	-0.076787814
57	0xbf005ea9	-0.5014444
58	0x3f51e5ab	0.8199107
59	0x3f48f6fe	0.7850188
60	0x3e628c37	0.221238
61	0xbee8ab0e	-0.45443004
62	0x3f07d931	0.5306578
63	0x3dcdd467	0.10050278
64	0x3f8647a8	1.0490618
65	0x3f747e78	0.95505476
66	0x3f379d00	0.7172394
67	0x3eb01346	0.34389704
68	0x3eb24fc4	0.3482648
69	0x3e85276d	0.26006642
70	0xbe3626a8	-0.17788184
71	0x3f14acfb	0.5807645
72	0x3df712be	0.12064122
73	0x3f42de37	0.7612032
74	0x3f46379e	0.77428615
75	0xbe119912	-0.14218548
76	0xbe1e8ce7	-0.15483437
77	0xbeaf15a9	-0.34196213
78	0xbedcd0e6	-0.43128127
79	0x3f33e845	0.7027629
80	0x3f88e1f6	1.0693958
81	0x3e649810	0.22323632
82	0xbe91f563	-0.28507528
83	0xbe4dd3f3	-0.20100383
84	0x3f4eda44	0.80801797
85	0x3d12b342	0.035815485
86	0xbdcd44ca	-0.10022886
87	0x3d84d741	0.06486369
88	0x3d76a36f	0.060214456
89	0xbe5b27ce	-0.21401903
90	0x3ea371fc	0.319229
91	0x3f5b07ae	0.85558593
92	0xbdc39032	-0.095489874
93	0xbdd08e9e	-0.10183452
94	0xbf8f2697	-1.1183652
95	0xbf710354	-0.94145703
96	0x3ec6137f	0.3868675
97	0x3f91086d	1.1330696
98	0xbe1d17cb	-0.15341108
99	0x3f0acf56	0.5422262
100	0x3f733d93	0.9501583
101	0xbd5a2260	-0.05325544
102	0x3f74acc8	0.95576143
103	0x3d4d7cf0	0.050167978
104	0x3ef3ea3a	0.47639638
105	0x3f6bc69a	0.92099917
106	0xbec213ce	-0.37905735
107	0xbdd86386	-0.105658576
108	0xbecab5ac	-0.3959173
109	0x3e98d0d9	0.29846838
110	0xbedcda93	-0.4313551
111	0x3e133a8b	0.14377801
112	0x3f10f9b6	0.5663103
113	0x3f35e867	0.7105774
114	0x3dd0a9fa	0.101886705
115	0x3ebaed34	0.36509097
116	0xbe130619	-0.14357795
117	0x3dbdb21f	0.092624895
118	0x3f1f116c	0.6213596
119	0xbeb1248b	-0.34598193
120	0x3dc9a630	0.09846151
121	0xbe870246	-0.26368922
122	0xbc660988	-0.014040358
123	0x3f432c3a	0.7623936
124	0xbee0fce8	-0.43942952
125	0xbedee965	-0.4353744
126	0xbe399a98	-0.18125379
127	0x3ee1e906	0.44123095

conv_1d_time_stacked/conv1d_6/conv1d/ExpandDims_1 i1 [128, 1, 3, 128] scale=0.00104021 zero_point=0
0	0x19	0.02600525
1	0x30	0.04993008
2	0x10	0.01664336
3	0xef	-0.01768357
4	0x3d	0.06345281
5	0xbe	-0.06865386
6	0xf8	-0.00832168
7	0xf7	-0.00936189
8	0x27	0.04056819
9	0x20	0.03328672
10	0x1a	0.02704546
11	0x35	0.05513113
12	0x21	0.03432693
13	0x2b	0.04472903
14	0xe4	-0.02912588
15	0x2d	0.04680945
16	0x22	0.03536714
17	0xf9	-0.00728147
18	0xef	-0.01768357
19	0x2a	0.04368882
20	0x0a	0.0104021
21	0x00	0.0
22	0xe7	-0.02600525
23	0xff	-0.00104021
24	0x20	0.03328672
25	0x29	0.04264861
26	0x18	0.02496504
27	0xee	-0.01872378
28	0x02	0.00208042
29	0xd0	-0.04993008
30	0x3c	0.0624126
31	0xc8	-0.05825176
32	0xdc	-0.03744756
33	0x13	0.019763991
34	0x1e	0.0312063
35	0x11	0.01768357
36	0x2e	0.047849663
37	0xdb	-0.03848777
38	0x15	0.02184441
39	0xe8	-0.02496504
40	0x0a	0.0104021
41	0xd6	-0.04368882
42	0xcb	-0.05513113
43	0x07	0.00728147
44	0x2a	0.04368882
45	0x1a	0.02704546
46	0x1b	0.028085671
47	0x01	0.00104021
48	0xe7	-0.02600525
49	0xc1	-0.06553323
50	0xd9	-0.04056819
51	0xbb	-0.07177449
52	0xeb	-0.02184441
53	0x0a	0.0104021
54	0x13	0.019763991
55	0xd3	-0.04680945
56	0xe0	-0.03328672
57	0xdf	-0.03432693
58	0x23	0.03640735
59	0xca	-0.056171343
60	0xee	-0.01872378
61	0x06	0.00624126
62	0xd5	-0.04472903
63	0x17	0.023924831
64	0x0d	0.01352273
65	0x2a	0.04368882
66	0xf6	-0.0104021
67	0xe3	-0.03016609
68	0x0f	0.01560315
69	0x29	0.04264861
70	0xf1	-0.01560315
71	0xf4	-0.01248252
72	0x35	0.05513113
73	0x15	0.02184441
74	0x41	0.067613654
75	0x0a	0.0104021
76	0x38	0.05825176
77	0xf8	-0.00832168
78	0x1c	0.02912588
79	0x1e	0.0312063
80	0x0c	0.01248252
81	0xdd	-0.03640735
82	0x00	0.0
83	0x38	0.05825176
84	0xe5	-0.028085671
85	0xf8	-0.00832168
86	0x22	0.03536714
87	0xfe	-0.00208042
88	0xf1	-0.01560315
89	0x26	0.039527982
90	0xd5	-0.04472903
91	0x28	0.0416084
92	0xc1	-0.06553323
93	0xee	-0.01872378
94	0x1d	0.03016609
95	0x2d	0.04680945
96	0xfd	-0.00312063
97	0x0f	0.01560315
98	0xe7	-0.02600525
99	0x29	0.04264861
100	0x1a	0.02704546
101	0x01	0.00104021
102	0x10	0.01664336
103	0x33	0.05305071
104	0xe2	-0.0312063
105	0x21	0.03432693
106	0x18	0.02496504
107	0x3e	0.06449302
108	0x09	0.00936189
109	0x3b	0.061372392
110	0x11	0.01768357
111	0xc1	-0.06553323
112	0xdd	-0.03640735
113	0xf1	-0.01560315
114	0xec	-0.0208042
115	0xb4	-0.079055965
116	0x17	0.023924831
117	0x25	0.03848777
118	0xfb	-0.00520105
119	0x0c	0.01248252
120	0x4c	0.079055965
121	0x1e	0.0312063
122	0x1d	0.03016609
123	0x00	0.0
124	0x05	0.00520105
125	0x0e	0.01456294
126	0xf3	-0.01352273
127	0xd3	-0.04680945
128	0xec	-0.0208042
129	0x08	0.00832168
130	0x12	0.01872378
131	0x14	0.0208042
132	0xf7	-0.00936189
133	0x1a	0.02704546
134	0x26	0.039527982
135	0xe2	-0.0312063
136	0x2a	0.04368882
137	0x04	0.00416084
138	0xf3	-0.01352273
139	0x06	0.00624126
140	0x20	0.03328672
141	0xfb	-0.00520105
142	0xce	-0.0520105
143	0x45	0.07177449
144	0xdd	-0.03640735
145	0xd3	-0.04680945
146	0xbe	-0.06865386
147	0xfa	-0.00624126
148	0x0d	0.01352273
149	0x03	0.00312063
150	0x1a	0.02704546
151	0x0a	0.0104021
152	0xfd	-0.00312063
153	0x1a	0.02704546
154	0x07	0.00728147
155	0x20	0.03328672
156	0x0d	0.01352273
157	0xf8	-0.00832168
158	0x25	0.03848777
159	0xeb	-0.02184441
160	0xe2	-0.0312063
161	0x10	0.01664336
162	0xe5	-0.028085671
163	0x1c	0.02912588
164	0x15	0.02184441
165	0xe1	-0.03224651
166	0xf4	-0.01248252
167	0x0a	0.0104021
168	0xeb	-0.02184441
169	0xfc	-0.00416084
170	0x16	0.02288462
171	0xd5	-0.04472903
172	0x09	0.00936189
173	0xf6	-0.0104021
174	0xe7	-0.02600525
175	0xe8	-0.02496504
176	0xec	-0.0208042
177	0xe5	-0.028085671
178	0xef	-0.01768357
179	0xcb	-0.05513113
180	0x1f	0.03224651
181	0xf2	-0.01456294
182	0xff	-0.00104021
183	0xe4	-0.02912588
184	0x18	0.02496504
185	0x0a	0.0104021
186	0xfd	-0.00312063
187	0x30	0.04993008
188	0x0d	0.01352273
189	0xed	-0.019763991
190	0x15	0.02184441
191	0x29	0.04264861
192	0xd9	-0.04056819
193	0x2a	0.04368882
194	0xfa	-0.00624126
195	0xf3	-0.01352273
196	0xf3	-0.01352273
197	0x19	0.02600525
198	0x26	0.039527982
199	0xf4	-0.01248252
200	0xf6	-0.0104021
201	0x16	0.02288462
202	0x15	0.02184441
203	0x2d	0.04680945
204	0xe7	-0.02600525
205	0x01	0.00104021
206	0x09	0.00936189
207	0xed	-0.019763991
208	0x0e	0.01456294
209	0x0c	0.01248252
210	0xea	-0.02288462
211	0x13	0.019763991
212	0x1f	0.03224651
213	0xda	-0.039527982
214	0xf5	-0.01144231
215	0xdf	-0.03432693
216	0xef	-0.01768357
217	0xdb	-0.03848777
218	0x25	0.03848777
219	0x14	0.0208042
220	0xfb	-0.00520105
221	0x26	0.039527982
222	0x10	0.01664336
223	0xf8	-0.00832168
224	0xcf	-0.05097029
225	0x03	0.00312063
226	0x1d	0.03016609
227	0xf1	-0.01560315
228	0x2c	0.04576924
229	0xd0	-0.04993008
230	0xf5	-0.01144231
231	0x26	0.039527982
232	0xf4	-0.01248252
233	0xf6	-0.0104021
234	0xfe	-0.00208042
235	0xf9	-0.00728147
236	0x09	0.00936189
237	0x2f	0.04888987
238	0x33	0.05305071
239	0xe9	-0.023924831
240	0x2f	0.04888987
241	0xce	-0.0520105
242	0x17	0.023924831
243	0xea	-0.02288462
244	0xdb	-0.03848777
245	0x09	0.00936189
246	0x03	0.00312063
247	0xe6	-0.02704546
248	0x2b	0.04472903
249	0x11	0.01768357
250	0xec	-0.0208042
251	0x19	0.02600525
252	0xc6	-0.06033218
253	0x18	0.02496504
254	0xd8	-0.0416084
255	0xea	-0.02288462

conv_1d_time_stacked/conv1d_6/conv1d_bias f4 [128]
0	0x3d907110	0.07052815
1	0x3f521d26	0.82075727
2	0x3ee80deb	0.4532312
3	0x3f4fcc5a	0.8117119
4	0x3fdc369a	1.7204163
5	0xbf287dfd	-0.6581724
6	0x3ee004f0	0.43753767
7	0x3f981997	1.1882809
8	0x3ed2a419	0.41140822
9	0x3e0f6e55	0.14006932
10	0xbf31702d	-0.6931179
11	0xbfb54a6b	-1.4163336
12	0x3fb33c7a	1.4002831
13	0x3fa83e87	1.3144082
14	0x3f64a80e	0.8931893
15	0x3f601aef	0.875411
16	0x3f620efd	0.8830412
17	0xbe50b742	-0.20382407
18	0x3f573ca4	0.84076905
19	0x3c2d1c40	0.010565817
20	0x3f10b136	0.565204
21	0xbe00860e	-0.12551138
22	0x3f60e27b	0.8784558
23	0x3fbc3301	1.4703065
24	0x3f3124ca	0.6919676
25	0x3eec3dc4	0.46140873
26	0x3dcb25d2	0.09919323
27	0x3eb4d836	0.35321206
28	0x3e154fc5	0.14581211
29	0x3e420ab2	0.18949392
30	0x3fcf8a7d	1.6214138
31	0x3f9574e2	1.1676295
32	0x3f07dd1d	0.5307177
33	0x3fc8cd1b	1.5687593
34	0xbdc70bbd	-0.09719036
35	0x3ef83065	0.48474422
36	0x3df27146	0.118380114
37	0x3daf47d8	0.08558625
38	0xbe03aea2	-0.12859586
39	0x3fe4d8ed	1.78787
40	0xbf7854ec	-0.9700458
41	0x3fae3e87	1.3612832
42	0x3f7823aa	0.9692942
43	0xbe0dc624	-0.13845116
44	0x3f42d504	0.76106286
45	0x3eaca6cc	0.33721006
46	0x3f2a5e59	0.66550213
47	0x3f059e6b	0.5219485
48	0x3f4eb749	0.8074842
49	0x3f9a8753	1.2072548
50	0x3febaa50	1.841135
51	0x3ee4cfbe	0.44689745
52	0xbe439595	-0.1910003
53	0x3f9a530e	1.2056596
54	0x3f7f1cd3	0.9965336
55	0xbf0d55b0	-0.55208874
56	0x3ea21658	0.31657672
57	0x3f9f3569	1.2438174
58	0xbe5a4da6	-0.21318683
59	0x3e373e11	0.1789477
60	0xbcd84610	-0.026400596
61	0x3ebfef08	0.37487054
62	0x3f199a78	0.60001326
63	0x3fe26dd4	1.7689767
64	0x3f724e36	0.9465059
65	0x3f6abddd	0.9169596
66	0x3f3d6635	0.7398408
67	0x3db9778d	0.090560056
68	0x3f8e0e38	1.1098089
69	0x3f396c7a	0.7243115
70	0x3f82dad6	1.0223033
71	0x3f267ad8	0.65031195
72	0xbd267cfe	-0.040646546
73	0x3f2452c2	0.6418878
74	0xbeb1d4a2	-0.34732538
75	0xbe3e21f8	-0.18567646
76	0x3e67fc44	0.22654825
77	0xbd623de8	-0.05523482
78	0x3f99fbbc	1.2029948
79	0x3f739284	0.9514544
80	0x3fa629cc	1.2981505
81	0x3f00bca3	0.50287837
82	0x3f24dd43	0.6440012
83	0x3f768e74	0.96311116
84	0x3ef9f3a4	0.48818696
85	0x3fa05131	1.2524778
86	0x3ef6b809	0.48187283
87	0x3ea0c150	0.31397486
88	0xbe9b474b	-0.3032783
89	0x3f81be71	1.0136243
90	0x3fc32963	1.5247005
91	0x3f2a3494	0.6648648
92	0x3f7cbb79	0.9872356
93	0x3fd60b2c	1.6722159
94	0x3f8da9d8	1.1067457
95	0x3f1f4c39	0.6222568
96	0x3f134ac4	0.5753596
97	0x3d6e4960	0.058175445
98	0xbe97c0e8	-0.29639363
99	0x3de111fc	0.10989758
100	0xbd14e790	-0.036353648
101	0x3f553098	0.83277273
102	0xbf52eec7	-0.82395595
103	0x3faee498	1.3663511
104	0x3e5f211a	0.21789971
105	0x3d8ae244	0.06781438
106	0xbf8f70a3	-1.1206249
107	0x3fe2540f	1.7681903
108	0x3f0e0812	0.55481064
109	0x4001251e	2.0178905
110	0x3f561de7	0.8363938
111	0xbdf2d15c	-0.118563384
112	0xbeea7864	-0.45794976
113	0x3f0495bd	0.5179098
114	0xbd2ea148	-0.04263428
115	0x3e52d994	0.20590812
116	0x3f943a84	1.1580358
117	0x3e7f9657	0.24959694
118	0xbd0fc724	-0.035102025
119	0x3f7de0b9	0.99171025
120	0x3fd9e585	1.7023169
121	0xbd03bb98	-0.032161325
122	0x3ead619d	0.33863536
123	0x3d58e0ba	0.05294869
124	0x3ec80672	0.39067417
125	0x3fa9c8ae	1.3264368
126	0x3f8df355	1.1089884
127	0x3f4c0bdd	0.797056
